model/saved_models/model-1.pth (torch_old, 133508 bytes, 10 tensors)

conv1.weight f4 [6, 1, 5, 5]
0.065513 0.8613631 0.19332297 -0.7452967 -0.044003483 0.6219061 -0.060432952 -0.4228592
0.12979719 -0.49377647 0.1782238 -0.21636961 -0.15290849 0.2519147 0.24309534 -0.33761534
0.4963706 -0.015068792 -0.4438322 0.02269646 -0.063723125 0.13830392 0.042402145 -0.043078415
-0.09945611 0.2120491 -0.059188955 0.08583716 0.6382859 0.46272776 -0.24985626 0.4718079
0.588289 0.45873073 0.40002513 -0.42454872 -0.06915483 0.2525617 0.34201023 0.06921069
0.33132043 0.07702951 -0.31678775 -0.9104575 -0.39341566 -0.022951929 -0.5143264 -0.8126978
-1.028493 -0.36922076 0.14355871 -0.07992521 -0.504833 0.02293382 -0.120261356 0.3902281
-0.04789843 -0.52440274 -0.108212225 0.03654846 0.4983429 0.114744835 -0.31963447 -0.26642048
0.056937113 0.6502756 0.108380094 -0.3696712 -0.058673944 0.09925185 0.57277673 0.39385235
-0.537361 -0.12285942 -0.07796553 -0.8814882 -0.2156443 -0.28221264 0.45098817 0.28610352
0.27832022 0.4538718 0.21979241 0.29207987 0.25736392 0.17955224 -0.23642167 0.11163889
0.06373284 0.0024857621 0.21542701 -0.30442458 0.24781092 0.22262584 0.0031203893 0.02024653
-0.26145214 -0.18669204 -0.1291577 -0.06185054 0.26549217 0.14070207 0.4574654 0.5759082
0.55567807 0.01428755 0.23115002 -0.017492179 -0.35002744 0.034862973 -0.12865604 0.035397507
0.091214344 -0.3940883 -0.06007968 -0.28221214 0.15691945 -0.017065743 0.008104857 0.13163686
-0.04343971 0.07136765 0.1516732 -0.26689008 0.06657097 -0.14235759 -0.28841302 0.69119865
0.17789187 -0.24002333 -0.4580126 -0.16540314 0.54638493 0.28461576 -0.055629168 -0.49911344
-0.16167532 0.23079598 0.38710216 0.2586362 -0.60756546 -0.27867472 0.43414107 0.22250119
0.20838305 -0.7082692 -0.203789 0.14918412 0.24992247 0.09073372
00000000: ae2b 863d 4b82 5c3f 75f6 453e c4cb 3ebf
00000010: ff3c 34bd 3d35 1f3f 8b88 77bd 0081 d8be
00000020: 8ee9 043e 45d0 fcbe 4d80 363e ff8f 5dbe
00000030: 0b94 1cbe f7fa 803e fced 783e ebdb acbe
00000040: 4a24 fe3e 18e3 76bc f93d e3be eded b93c
00000050: 4581 82bd 8b9f 0d3e dfad 2d3d fe72 30bd
00000060: a5af cbbd 6623 593e 1e70 72bd 65cb af3d
00000070: b466 233f a7ea ec3e 52da 7fbe ce90 f13e
00000080: 1c9a 163f c1de ea3e 18d0 cc3e 735e d9be
00000090: 0ca1 8dbd c44f 813e f71b af3e 56be 8d3d
000000a0: d5a2 a93e a6c1 9d3d 0132 a2be be13 69bf
000000b0: c76d c9be af05 bcbc e5aa 03bf f70c 50bf
000000c0: a9a5 83bf 810a bdbe 0e01 133e d4af a3bd
000000d0: bc3c 01bf b5df bb3c 964b f6bd facb c73e
000000e0: 2531 44bd 423f 06bf 5f9e ddbd d7b3 153d
000000f0: cd26 ff3e 57ff ea3d 21a7 a3be 4468 88be
00000100: e436 693d 7678 263f 62f6 dd3d 8b45 bdbe
00000110: 1754 70bd 8e44 cb3d 7fa1 123f 04a7 c93e
00000120: 7e90 09bf b89d fbbd 64ac 9fbd 36a9 61bf
00000130: dcd1 5cbe 2d7e 90be ece7 e63e 297c 923e
00000140: fd7f 8e3e e261 e83e 4311 613e 7e8b 953e
00000150: 34c5 833e 8bdc 373e 8618 72be eea2 e43d
00000160: 5d86 823d 2be8 223b e698 5c3e 8add 9bbe
00000170: 25c2 7d3e 07f8 633e 727f 4c3b 0ddc a53c
00000180: 0edd 85be 332c 3fbe eb41 04be fe56 7dbd
00000190: 97ee 873e 3414 103e e838 ea3e b86e 133f
000001a0: eb40 0e3f 5416 6a3c 97b2 6c3e c24b 8fbc
000001b0: cc36 b3be 7acc 0e3d 69be 03be fafc 103d
000001c0: 96ce ba3d f1c5 c9be 1c16 76bd 1c7e 90be
000001d0: 7eaf 203e 75cd 8bbc 3cca 043c d0cb 063e
000001e0: d6ed 31bd 3429 923d 3850 1b3e d1a5 88be
000001f0: 5c56 883d 30c6 11be dfaa 93be 65f2 303f
00000200: 4929 363e adc8 75be a180 eabe 715f 29be
00000210: e2df 0b3f 28b9 913e 69db 63bd cc8b ffbe
00000220: 378e 25be c855 6c3e 4132 c63e f76b 843e
00000230: 6989 1bbf 74ae 8ebe bd47 de3e 5ad7 633e
00000240: 5e62 553e 2151 35bf 10ae 50be b9c3 183e
00000250: adeb 7f3e 9ad2 b93d

conv1.bias f4 [6]
0.0019442448 0.23244889 -0.026195493 -0.012129547 -0.050569937 0.0025187514
00000000: 08d6 fe3a 1507 6e3e ee97 d6bc 02bb 46bc
00000010: 6c22 4fbd a311 253b

conv2.weight f4 [12, 6, 5, 5]
0.46649912 -0.17714511 -0.5229051 -0.53436613 0.0874836 -0.007297517 -0.30195624 0.041129924
0.2248472 -0.03825284 -0.291478 -0.31986094 -0.13133399 0.3350066 -0.12424536 0.2102513
-0.021888038 0.074822575 0.070929736 -0.11064077 0.336502 0.31825563 0.22094074 0.22442141
-0.23923227 0.09701769 0.95274746 0.19578542 0.27167982 0.028185835 0.31123587 0.4802534
0.26821926 0.091041006 -0.29796505 -0.13788183 0.55842066 -0.054245282 0.44176224 0.0055836583
-0.10960192 -0.1711619 -0.34321392 -0.16154066 -0.13820928 0.12463251 -0.07211792 0.122747585
0.503213 -0.13772084 0.17909983 0.38700506 -0.15060402 0.3776115 -0.028437143 -0.88150835
0.21734837 -0.30574366 0.17326836 -0.15030074 -0.16991572 0.16047879 -0.06808472 -0.22419459
-0.21414292 0.077037066 0.40795517 0.37077168 -0.06964922 -0.44523922 0.291787 0.08001074
0.46859744 0.41099107 0.43007904 -0.5774964 -0.7624201 -0.14231999 -0.43511862 0.3448238
-0.31342727 -0.13369744 -0.0009991855 -0.2776413 0.029700104 -0.15094987 0.006304173 0.001610039
0.13233572 0.65196127 -0.077654794 0.38405564 0.18814696 0.2479928 0.25241932 0.29740998
0.2557635 0.056765623 0.17058286 -0.0140535245 -0.7014427 -0.5413903 -0.48456642 -0.1635079
-0.1994933 -0.2249106 -0.07100512 0.075026035 0.03332101 -0.06220889 -0.32994974 -0.016212402
0.08957051 0.097588174 -0.09092597 0.06850431 0.16161582 0.24830203 0.31923842 -0.149352
0.55821633 0.108472176 0.13498436 0.06743094 -0.13955739 -0.3399625 -0.008992141 0.07703455
-0.10668779 0.44305614 -0.18405607 -0.08870686 -0.36146608 0.25854975 0.62986434 0.041704454
-0.02949714 -0.3483772 -0.14489649 0.36853233 0.31164125 0.0032863533 0.09063579 -0.23890325
-0.43315044 -0.34626955 -0.061979737 0.21735725 0.13193396 -0.14879218 0.038910665 -0.241522
0.2892289 0.53220963 0.036271982 0.12424271 0.2784487 -0.6247822 0.021422055 -0.2734121
0.24021636 -0.16087165 -0.067621596 0.20904951 0.23810896 0.12668449 -0.21060787 -0.5494987
0.3118219 0.16498904 0.20862184 -0.14518335 0.0041397614 -0.071999826 0.042996485 0.044690724
0.7113379 0.19477385 0.12362328 -0.6762344 -0.32701164 0.1919509 0.285846 0.12796187
-0.00033033366 -0.63164383 0.21544908 0.14893132 0.77973485 0.37927446 -0.28320277 0.16511689
-0.042108808 0.5912725 0.15288866 -0.22673357 0.1086618 0.049769517 0.4553941 0.17196612
0.07450471 -0.4943646 -0.6158058 0.26033837 0.08485498 0.17278017 0.18207613 -0.66705745
-0.3191502 0.024209421 -0.05481099 -0.27594236 -0.31975973 -0.36012077 -0.26263335 0.21544175
-0.17296861 -0.37278804 -0.27940094 -0.20261054 0.62905365 0.6808176 -0.5629839 -0.06289807
-0.3119819 0.18326232 0.03380524 0.060936593 0.13954233 0.31347346 -0.20759782 -0.27387246
-0.038928516 -0.09285597 -0.20453101 -0.13851975 -0.17461488 0.08191044 0.5110141 -0.019306336
0.096101485 0.054558653 0.11689006 0.26811534 -0.2515516 0.093867436 0.17464554 0.13427775
0.3011394 -0.0767895 -0.10028302 0.2426679 0.56535745 -0.0370138 0.010143217 0.17464559
00000000: f9d8 ee3e 8765 35be 1cdd 05bf 38cc 08bf
00000010: 9a2a b33d 0220 efbb 029a 9abe da77 283d
00000020: 583e 663e 03af 1cbd 9b3c 95be d0c4 a3be
00000030: 6b7c 06be fc85 ab3e 5a74 febd 1e4c 573e
00000040: 8b4e b3bc 943c 993d 9c43 913d a197 e2bd
00000050: fd49 ac3e 67f2 a23e 4a3e 623e bace 653e
00000060: 4ef9 74be 36b1 c63d 42e7 733f f97b 483e
00000070: 9e19 8b3e fbe5 e63c 4f5a 9f3e c6e3 f53e
00000080: 0954 893e b573 ba3d e08e 98be e530 0dbe
00000090: a8f4 0e3f 4d30 5ebd a92e e23e 1ff7 b63b
000000a0: f976 e0bd 1145 2fbe bcb9 afbe ea6a 25be
000000b0: bc86 0dbe 543f ff3d 8fb2 93bd 1663 fb3d
000000c0: 91d2 003f b106 0dbe f265 373e 8725 c63e
000000d0: f137 1abe 4b56 c13e 03f5 e8bc 88aa 61bf
000000e0: 9290 5e3e 6f8a 9cbe 436d 313e 70e8 19be
000000f0: 63fe 2dbe 8d54 243e 0070 8bbd 4493 65be
00000100: 4848 5bbe 9cc5 9d3d 80df d03e c9d5 bd3e
00000110: 40a4 8ebd 65f6 e3be 1b65 953e acdc a33d
00000120: 01ec ef3e 6c6d d23e 5233 dc3e ced6 13bf
00000130: f72d 43bf 55bc 11be dec7 debe bf8c b03e
00000140: 8a79 a0be fbe7 08be 1af7 82ba 0027 8ebe
00000150: a24d f33c 9a92 1abe 3c93 ce3b f207 d33a
00000160: 0483 073e efe6 263f 7a09 9fbd f1a2 c43e
00000170: 99a9 403e d3f1 7d3e 1b3d 813e 1f46 983e
00000180: 6ff3 823e 1283 683d 46ad 2e3e c140 66bc
00000190: c091 33bf 8e98 0abf 1719 f8be 9d6e 27be
000001a0: f947 4cbe f74e 66be 226b 91bd 40a7 993d
000001b0: 9d7b 083d c0ce 7ebd 2cef a8be dfcf 84bc
000001c0: be70 b73d 4fdc c73d 6537 babd fd4b 8c3d
000001d0: 9e7e 253e e342 7e3e 3873 a33e bbef 18be
000001e0: 44e7 0e3f a926 de3d 5739 0a3e 3c19 8a3d
000001f0: 22e8 0ebe 910f aebe c653 13bc 4ac4 9d3d
00000200: 217f dabd 41d8 e23e 3279 3cbe f1ab b5bd
00000210: 1512 b9be a260 843e ca3e 213f 4ad2 2a3d
00000220: fca3 f1bc 7f5e b2be bf5f 14be 45b0 bc3e
00000230: 718f 9f3e dc5f 573b 429f b93d 0ea3 74be
00000240: e5c5 ddbe 3e4a b1be 77de 7dbd e692 5e3e
00000250: b219 073e fa5c 18be ca60 1f3d 8b51 77be
00000260: cf15 943e e43e 083f ee91 143d f672 fe3d
00000270: d490 8e3e baf1 1fbf 4e7d af3c acfc 8bbe
00000280: 47fb 753e 8abb 24be 317d 8abd 1311 563e
00000290: d6d2 733e 94b9 013e 97a9 57be f2ab 0cbf
000002a0: 1fa7 9f3e e3f2 283e f7a0 553e f2aa 14be
000002b0: d6a6 873b a574 93bd 151d 303d 9f0d 373d
000002c0: 3e1a 363f cc72 473e 342e fd3d b31d 2dbf
000002d0: 126e a7be c78e 443e 685a 923e 7008 033e
000002e0: a230 adb9 69b3 21bf af9e 5c3e 7481 183e
000002f0: b49c 473f 4330 c23e f4ff 90be 6714 293e
00000300: 497a 2cbd a25d 173f d88e 1c3e d82c 68be
00000310: 148a de3d 1fdb 4b3d 6a29 e93e e317 303e
00000320: ed95 983d 5b1d fdbe 73a5 1dbf 124b 853e
00000330: 73c8 ad3d 49ed 303e 2a72 3a3e 47c4 2abf
00000340: a867 a3be d652 c63c 7d81 60bd 5148 8dbe
00000350: 8cb7 a3be c061 b8be e177 86be c39c 5c3e
00000360: af1e 31be 13de bebe a40d 8fbe 2379 4fbe
00000370: a909 213f 104a 2e3f b61f 10bf b4d0 80bd
00000380: 17bc 9fbe 1ea9 3b3e 5d77 0a3d a698 793d
00000390: 2fe4 0e3e 987f a03e 8694 54be 0339 8cbe
000003a0: 8273 1fbd 452b bebd 9470 51be 1fd8 0dbe
000003b0: 3ece 32be a9c0 a73d d2d1 023f 5228 9ebc
000003c0: dbd0 c43d e578 5f3d 0e64 ef3d 6a46 893e
000003d0: 5fcb 80be 923d c03d 48d6 323e 1b80 093e
000003e0: f22e 9a3e d043 9dbd 2f61 cdbd ef7d 783e
000003f0: 44bb 103f c89b 17bd bc2f 263c 4bd6 323e

conv2.bias f4 [12]
0.083074145 0.45295593 -0.02154387 1.1275916 0.86319596 0.015255674 -0.34327307 -0.15271163
-0.23628098 0.03894816 0.22265755 -0.073532425
00000000: c722 aa3d d7e9 e73e c57c b0bc ec54 903f
00000010: 69fa 5c3f eff2 793c 7dc1 afbe 7060 1cbe
00000020: a4f3 71be 1b88 1f3d 5700 643e 2b98 96bd

fc1.weight f4 [120, 192]
0.35455912 -0.13016383 -0.85635173 0.3733116 -0.045634545 0.3777138 0.03412547 0.2226912
-0.3905471 0.023754673 -0.33026212 -0.27444056 0.0241437 0.32929048 0.12037517 -0.22200046
-0.4533322 -0.16871911 0.32389396 0.15439463 -0.47212303 -0.3715762 -0.26932624 0.18605423
-0.07066148 0.040360708 -0.32188848 0.74946815 0.21652704 -0.25300798 -0.287646 0.07967076
0.03536706 0.03194359 -0.035171308 -0.056633856 0.05765804 0.039150983 -0.0008780882 0.0058412403
-0.027394345 -0.042116106 -0.0027106553 0.005435161 0.057464432 -0.065506734 -0.020335745 0.014449172
-0.18364547 0.26031452 -0.01978372 -0.12663396 -0.13169776 -0.47407606 0.016508475 -0.08670855
0.40892932 -0.47284284 0.27285898 -0.32572007 0.19634216 0.14687447 0.045666464 -0.56200993
0.069283694 0.4497011 -0.5892371 0.12116079 0.052526694 -0.4622585 -0.18983662 -0.24854103
-0.023522442 -0.023244375 0.3278485 -0.09372272 0.41065568 -0.035896495 -0.301644 0.3303519
-0.0744944 -0.18204258 -0.22824007 -0.13785928 0.27321383 0.03871391 0.082037866 0.013048698
0.10171635 -0.11301749 -0.10003003 0.048631392 -0.22832684 0.15070406 -0.13914391 0.4070239
0.31920686 -0.14422554 -0.055981457 -0.2455499 -0.0064548207 0.15087597 -0.2816968 -0.12920047
0.07656217 -0.17157917 -0.006437269 -0.2647177 -0.17690094 0.3922274 0.053421237 0.45489776
0.45162043 -0.16126938 -0.411976 -0.33892885 0.19165474 0.048652206 -0.2811834 0.13719702
-0.1854758 0.22142825 -0.031006739 -0.18082958 -0.26404306 -0.07497146 0.5941717 -0.22663216
-0.011377337 0.594814 0.081607446 -0.1613337 -0.54011273 0.27824315 0.33192286 -0.4214088
0.030754156 0.14368163 0.026289888 0.49266696 -0.38732752 -0.066222824 -0.21780403 -0.30394515
-0.25951907 -0.06848565 0.593653 0.23699759 -0.033914484 -0.21745974 0.20675597 0.32758933
-0.011092476 -0.32023355 -0.42036417 0.32752094 -0.2504199 0.07767198 0.27274755 -0.031105535
-0.51509726 0.30245432 0.20781897 0.47469223 0.2864647 -0.2062171 -0.30490178 -0.7967075
0.16752441 -0.12848063 0.23045012 -0.48838443 0.38763806 -0.29674938 0.07829669 -0.21510023
-0.010063678 -0.035362788 0.020995298 -0.023308426 -0.00459995 -0.077583216 -0.06251042 -0.03179584
0.0043025417 0.00442834 -0.0017634964 0.04763814 0.06523467 -0.035773247 0.006022056 -0.044331152
0.41407242 0.30874404 0.27246276 0.1101971 0.1718456 0.1956465 0.49067873 0.6039988
-0.18503518 0.20671225 0.22328208 0.48643407 -0.30374712 -0.016163472 -0.009110177 0.07518269
0.47789332 -0.7143893 -0.1398577 0.13431288 0.94995886 -0.6401385 -0.21965443 -0.42925346
0.6016308 -0.5784091 -0.14086701 0.03977759 0.044785082 -0.30027932 -0.009605039 0.113251835
-0.032741047 -0.037623595 -0.06428721 0.0105826035 -0.045980707 -0.038271558 -0.033569075 -0.040004022
-0.041564822 0.0056771785 -0.06656338 0.03595443 0.0024512187 0.034288444 0.011761822 0.062413707
-0.5514985 0.15742637 0.021717919 0.25281614 -0.11171408 -0.09477018 0.017333185 -0.50571996
-0.3031569 0.15325946 -0.1545125 0.04756444 -0.1317733 -0.45601943 -0.41935423 -0.5130906
00000000: c688 b53e ab49 05be de39 5bbf b322 bf3e
00000010: 4aeb 3abd b463 c13e 26c7 0b3d 2909 643e
00000020: caf5 c7be 2999 c23c 1e18 a9be 7983 8cbe
00000030: 02c9 c53c c398 a83e 4287 f63d 1754 63be
00000040: 281b e8be b4c4 2cbe 6ed5 a53e a019 1e3e
00000050: 1cba f1be 3c3f bebe 21e5 89be 0085 3e3e
00000060: f7b6 90bd 4551 253d 91ce a4be 25dd 3f3f
00000070: 44b9 5d3e 438a 81be 5646 93be 6c2a a33d
00000080: 0ddd 103d 48d7 023d ca0f 10bd e7f8 67bd
00000090: d62a 6c3d c85c 203d 802f 66ba e067 bf3b
000000a0: 1b6a e0bc f081 2cbd 40a5 31bb 6f19 b23b
000000b0: d35f 6b3d 6528 86bd 2697 a6bc 38bc 6c3c
000000c0: 8f0d 3cbe f247 853e 7811 a2bc 55ac 01be
000000d0: c7db 06be 19ba f2be c83c 873c 4194 b1bd
000000e0: 2f5f d13e 7518 f2be 2cb4 8b3e c8c4 a6be
000000f0: eb0d 493e 4366 163e c20c 3b3d e2df 0fbf
00000100: 9ce4 8d3d 393f e63e 3ed8 16bf 2623 f83d
00000110: 3b26 573d 25ad ecbe 8864 42be 8a81 7ebe
00000120: 23b2 c0bc fd6a bebc c2db a73e b3f1 bfbd
00000130: 7641 d23e 3408 13bd 1571 9abe e223 a93e
00000140: 8590 98bd 5f69 3abe c4b7 69be fc2a 0dbe
00000150: afe2 8b3e 7a92 1e3d 7803 a83d 35ca 553c
00000160: a950 d03d b775 e7bd 8bdc ccbd b631 473d
00000170: 83ce 69be 2a52 1a3e be7b 0ebe 7065 d03e
00000180: 156f a33e dcaf 13be d04c 65bd 6f71 7bbe
00000190: f682 d3bb 3b7f 1a3e 903a 90be 214d 04be
000001a0: a1cc 9c3d 73b2 2fbe baef d2bb 1489 87be
000001b0: 8525 35be 08d2 c83e 3ad0 5a3d 5ce8 e83e
000001c0: cb3a e73e cd23 25be 85ee d2be 1588 adbe
000001d0: 2441 443e 8947 473d 45f7 8fbe 607d 0c3e
000001e0: 5eed 3dbe 16be 623e d801 febc 642b 39be
000001f0: a730 87be a38a 99bd a31b 183f 4312 68be
00000200: 0368 3abc bb45 183f ce21 a73d a934 25be
00000210: d444 0abf e375 8e3e cbf1 a93e e5c2 d7be
00000220: 24f0 fb3c 4721 133e e45d d73c d83e fc3e
00000230: cb4f c6be d59f 87bd 0508 5fbe b39e 9bbe
00000240: afdf 84be 3442 8cbd a5f9 173f 7faf 723e
00000250: eae9 0abd c4ad 5ebe d6b7 533e cab9 a73e
00000260: 37bd 35bc a7f5 a3be f939 d7be d3b0 a73e
00000270: 0a37 80be 7d12 9f3d 91a5 8b3e 09d1 febc
00000280: 6add 03bf 4bdb 9a3e 7fce 543e dc0a f33e
00000290: 80ab 923e 932a 53be 161c 9cbe 06f5 4bbf
000002a0: 858b 2b3e 6d90 03be 1efb 6b3e 860d fabe
000002b0: 7f78 c63e 89ef 97be 045a a03d 3c43 5cbe
000002c0: 20e2 24bc 92d8 10bd 55fe ab3c 50f1 bebc
000002d0: 2dbb 96bb f3e3 9ebd 7705 80bd 5b3c 02bd
000002e0: 56fc 8c3b 9c1b 913b 1f25 e7ba 3620 433d
000002f0: c199 853d f886 12bd ab54 c53b 9594 35bd
00000300: 4d01 d43e b313 9e3e 3d80 8b3e 04af e13d
00000310: 4bf8 2f3e 8e57 483e 3e3a fb3e aa9f 1a3f
00000320: dd79 3dbe 60ac 533e 0fa4 643e e30d f93e
00000330: be84 9bbe 4269 84bc da42 15bc 62f9 993d
00000340: 6fae f43e 38e2 36bf db36 0fbe 5189 093e
00000350: 8130 733f 1ee0 23bf 17ed 60be 1cc7 dbbe
00000360: 7a04 1a3f 9e12 14bf 713f 10be d4ed 223d
00000370: 9070 373d 36be 99be 745e 1dbc 94f0 e73d
00000380: 7a1b 06bd 331b 1abd 03a9 83bd a862 2d3c
00000390: 4456 3cbd a3c2 1cbd ba7f 09bd 42db 23bd
000003a0: e03f 2abd a007 ba3b 6252 88bd f444 133d
000003b0: a0a4 203b 0a72 0c3d a8b4 403c 84a5 7f3d
000003c0: 012f 0dbf 6134 213e c7e9 b13c 1e71 813e
000003d0: 5aca e4bd de16 c2bd 53fe 8d3c dd76 01bf
000003e0: 6237 9bbe 0cf0 1c3e 8638 1ebe eed2 423d
000003f0: 94ef 06be 617b e9be 99b5 d6be e859 03bf

fc1.bias f4 [120]
0.5167418 0.123969965 0.040292 0.017619006 -0.36687523 0.26233163 -0.06082396 0.031355806
-0.04209369 -0.13721639 -0.20127036 0.15715644 0.067836925 0.046675287 0.05445599 0.2848286
-0.0070096566 0.9442025 -0.09821318 0.69660676 -0.1533058 0.26284757 -0.10834805 -0.4132791
-0.0813469 0.029104697 0.28136653 -0.07401771 -0.041227873 -0.008586359 0.22301352 -0.031170517
0.28108078 -0.024844227 0.6329773 -0.1859902 -0.21786708 -0.1424118 0.5337333 -0.07180067
-0.15926024 -0.14154416 -0.041342173 0.059075113 -0.07350736 0.0024437858 -0.01743852 -0.32358566
-0.679592 0.0029086599 0.39297158 -0.07278279 -0.19103368 -0.06413115 -0.08623085 -0.057692003
0.28560108 -0.04046644 -0.15589125 -0.0009887861 -0.08281624 -0.031081764 0.23270337 -0.0094115175
0.2103686 0.03787488 -0.045370102 -0.083431825 0.4280492 -0.021510467 -0.02741613 0.09298708
-0.2084753 0.33250198 -0.07488122 0.51703244 0.45010674 -0.114437304 -0.09555947 0.048326574
-0.50210226 -0.009893328 -0.023889504 -0.1210225 -0.20885141 0.41627243 -0.30426535 -0.293014
0.17049378 -0.24479344 0.083729185 -0.4003416 -0.38433036 0.21309306 -0.099877074 0.04867996
-0.015764302 0.42646682 0.44160593 -0.05887121 -0.25447 0.04825978 0.44124871 0.06924557
-0.016072877 -0.07654264 -0.05076052 0.05374594 0.42474595 0.20502138 0.44706205 0.075484045
-0.07305916 0.17763638 0.3517103 0.026130337 0.08171759 -0.00391047 -0.03221392 0.59720916
00000000: 3149 043f f7e3 fd3d 3909 253d bc55 903c
00000010: 12d7 bbbe 5550 863e 8b22 79bd f26e 003d
00000020: 6f6a 2cbd 7482 0cbe d119 4ebe 9eed 203e
00000030: 16ee 8a3d 962e 3f3d 3f0d 5f3d 0ed5 913e
00000040: 43b1 e5bb 41b7 713f fe23 c9bd d254 323f
00000050: 32fc 1cbe f593 863e 95e5 ddbd 5199 d3be
00000060: 3499 a6bd f96c ee3c 460f 903e 9996 97bd
00000070: 8fde 28bd cdad 0cbc a85d 643e 5059 ffbc
00000080: d2e9 8f3e 1f86 cbbc cd0a 223f 3774 3ebe
00000090: 8c18 5fbe 66d4 11be bfa2 083f 3b0c 93bd
000000a0: 1e15 23be f4f0 10be 6956 29bd bff8 713d
000000b0: 078b 96bd ec27 203b 3adb 8ebc 05ad a5be
000000c0: bef9 2dbf 379f 3e3b 9233 c93e 250f 95bd
000000d0: 559e 43be 3157 83bd cd99 b0bd 734e 6cbd
000000e0: 4e3a 923e 23c0 25bd f5a1 1fbe 289a 81ba
000000f0: 909b a9bd 2f9f febc cb49 6e3e c432 1abc
00000100: de6a 573e b122 1b3d 00d6 39bd 4ede aabd
00000110: 4429 db3e b836 b0bc cb97 e0bc 0370 be3d
00000120: 8d7a 55be b33d aa3e 535b 99bd 3d5c 043f
00000130: 6474 e63e 1b5e eabd afb4 c3bd 16f2 453d
00000140: c689 00bf a017 22bc ecb3 c3bc a5da f7bd
00000150: 25dd 55be a921 d53e abc8 9bbe ee05 96be
00000160: ec95 2e3e 22ab 7abe 357a ab3d 93f9 ccbe
00000170: f3c6 c4be 1135 5a3e 5a8c ccbd a364 473d
00000180: 2324 81bc dc59 da3e 2c1a e23e f022 71bd
00000190: e449 82be 0cac 453d 5aeb e13e 9fd0 8d3d
000001a0: 44ab 83bc 63c2 9cbd 43ea 4fbd b424 5c3d
000001b0: 4d78 d93e 20f1 513e 51e5 e43e 6197 9a3d
000001c0: 0aa0 95bd 50e6 353e 5f13 b43e 4a0f d63c
000001d0: 8d5b a73d 6623 80bb bef2 03bd b3e2 183f

fc2.weight f4 [60, 120]
-0.03286629 -0.0093643395 -0.10067557 -0.14503983 -0.049823865 -0.011977635 -0.08326111 -0.14496791
0.07886647 -0.1512679 -0.14448267 0.033186536 -0.019290706 -0.15399663 -0.12778836 -0.049024835
0.046247214 -0.016942373 -0.012301281 0.066621706 -0.14617462 -0.01689898 0.08289397 -0.035988104
0.05809696 -0.061034568 -0.06796306 0.014828257 0.03097739 0.009326212 0.05895383 -0.016606925
-0.06677547 0.02810058 0.09653022 -0.08950078 0.008412286 -0.047902692 0.04430812 -0.059750635
-0.2101701 -0.15939173 -0.08397775 0.27035782 0.0045674443 0.061977744 -0.09671455 -0.0145777585
-0.023254223 -0.071508765 0.034917947 0.069748834 0.063392006 -0.030603606 -0.15719222 0.069986254
-0.15434623 -0.069761015 -0.16745448 -0.2071217 -0.07393272 -0.16612534 -0.09067142 -0.030103557
-0.005413217 0.028691288 -0.058567848 0.063342795 -0.037990354 -0.021089707 -0.0051435027 -0.13807884
-0.1484259 -0.13650039 -0.108588964 0.016002787 -0.0638004 0.007117431 0.038667604 -0.009863201
-0.0049113743 -0.01584742 0.010580093 0.11139859 -0.010862907 -0.1870713 -0.022557108 0.08915158
0.050875857 -0.14106323 -0.047965564 -0.05665741 -0.12671728 -0.16570216 0.004516056 0.0585032
0.008952378 -0.06590494 -0.09380196 0.029451743 0.045080464 -0.085942484 0.014646556 0.008453516
0.08800909 -0.060392775 0.074506834 0.0028390384 -0.17991003 0.09693752 -0.10982911 -0.105676554
-0.052873127 -0.1489244 -0.028353637 -0.0797298 0.0030782735 0.0585955 -0.012586094 -0.12882844
0.45321938 -0.74491924 0.07089016 -0.1853792 -0.017984103 0.080170184 0.08753332 -0.13111933
0.042400476 0.16022599 -0.2882577 -0.29791775 -0.011815409 0.40731314 -0.21111023 -0.17766947
0.032050136 -0.5388948 -0.026656289 0.4434956 0.04191816 -0.46331695 0.10436762 0.7482307
-0.10529492 0.18932627 -1.0982807 -0.05504123 -0.04784787 0.05867093 0.21250513 0.0018537701
-0.11904879 -0.02115706 -0.13998996 0.14635164 -0.14613302 0.102733314 -0.50097907 0.0041189822
-0.28919047 0.6216119 -0.050347302 0.16647485 0.0117341345 -0.0057551875 0.16498354 0.30257347
0.08690886 -0.027250186 -0.04544811 0.06540343 -0.43594292 0.065314814 0.018435564 0.029257724
0.24633211 -0.42037955 0.14780243 0.13742329 0.050368287 0.5344329 -0.24830988 0.10059055
0.16172281 0.08075598 -0.028413516 0.085871205 0.19101562 -0.19050024 0.43969312 0.030005665
0.03830872 0.39649776 0.057097744 0.5304097 -0.27070075 0.13911013 0.045889124 -0.3576005
0.005228776 -0.11516431 -0.07558917 0.39895257 0.084359944 -0.15686943 -0.7382952 -0.28154197
0.3708991 0.07677083 0.22220662 -0.054249775 0.2528865 -0.1750425 -0.15166968 0.017519874
-0.06998789 0.2618615 -0.23250754 0.020204443 0.4946044 0.020211158 0.45768327 0.011486555
-0.121430956 -0.03393354 0.077640206 -0.011581209 0.17935248 0.03768585 -0.2192522 0.09663969
0.03464654 -0.0926945 -0.13855238 -0.46240953 0.05527222 -0.045842335 0.024719307 -0.06474033
0.6143869 0.376359 0.016707402 -0.2743527 -0.005736706 -0.4363285 -0.086169496 0.15164563
0.059033535 -0.09085919 0.24214657 -0.049102485 0.5735652 0.09968151 0.3895447 -0.8275978
00000000: ce9e 06bd e36c 19bc fe2e cebd 5285 14be
00000010: 1c14 4cbd d83d 44bc cd84 aabd 7872 14be
00000020: be84 a13d f9e5 1abe 44f3 13be 9bee 073d
00000030: 8b07 9ebc 4bb1 1dbe f4da 02be 44ce 48bd
00000040: b86d 3d3d bbca 8abc 508b 49bc f670 883d
00000050: cdae 15be bb6f 8abc 50c4 a93d 4368 13bd
00000060: 14f7 6d3d 62ff 79bd 3830 8bbd 38f2 723c
00000070: 4cc4 fd3c f8cc 183c 9279 713d 3f0b 88bc
00000080: 94c1 88bd 3033 e63c a3b1 c53d 2f4c b7bd
00000090: afd3 093c 9d35 44bd 6e7c 353d 15bd 74bd
000000a0: d536 57be 9637 23be 87fc abbd 576c 8a3e
000000b0: 80aa 953b 60dc 7d3d 4712 c6bd 8dd7 6ebc
000000c0: a47f bebc 3073 92bd 1f06 0f3d 7ad8 8e3d
000000d0: abd3 813d 6ab4 fabc fff6 20be f454 8f3d
000000e0: f00c 1ebe ddde 8ebd 3079 2bbe b617 54be
000000f0: 0a6a 97bd c31c 2abe f0b1 b9bd bc9b f6bc
00000100: 5b61 b1bb fe09 eb3c d7e4 6fbd deb9 813d
00000110: c69b 1bbd 52c4 acbc d48a a8bb 8a64 0dbe
00000120: f6fc 17be c2c6 0bbe e463 debd 4718 833c
00000130: c9a9 82bd 5739 e93b ec61 1e3d 4399 21bc
00000140: 98ef a0bb 73d2 81bc 2058 2d3c f224 e43d
00000150: 56fa 31bc 9e8f 3fbe afc9 b8bc 1b95 b63d
00000160: 3463 503d e172 10be 8a77 44bd 9a11 68bd
00000170: 2dc2 01be d4ad 29be 6cfb 933b 0da1 6f3d
00000180: ffac 123c 2bf9 86bd 3e1b c0bd c844 f13c
00000190: 4ba6 383d 9d02 b0bd 1cf8 6f3c 9e80 0a3c
000001a0: 1c3e b43d 6a5e 77bd 0a97 983d 290f 3a3b
000001b0: 563a 38be 2e87 c63d 16ee e0bd f36c d8bd
000001c0: 7e91 58bd a37f 18be e345 e8bc 6149 a3bd
000001d0: dcbc 493b d601 703d e835 4ebc 9aeb 03be
000001e0: 5f0c e83e 07b3 3ebf dc2e 913d 0cd4 3dbe
000001f0: 6653 93bc 4430 a43d ab44 b33d 2544 06be
00000200: 1fac 2d3d 4812 243e 8396 93be ad88 98be
00000210: 6b95 41bc 598b d03e 482d 58be fcee 35be
00000220: 0147 033d 02f5 09bf 4a5e dabc db11 e33e
00000230: 60b2 2b3d e137 edbe b1be d53d 0c8c 3f3f
00000240: dda4 d7bd bfde 413e 7694 8cbf ea72 61bd
00000250: 21fc 43bd ee50 703d f29a 593e 34fa f23a
00000260: dacf f3bd 9251 adbc 8759 0fbe 34dd 153e
00000270: e5a3 15be d865 d23d 2a40 00bf 87f8 863b
00000280: c610 94be f521 1f3f f938 4ebd 6278 2a3e
00000290: 8740 403c 0396 bcbb 72f1 283e e9ea 9a3e
000002a0: 46fd b13d c83b dfbc cc27 3abd 3cf2 853d
000002b0: e933 dfbe c6c3 853d 2e06 973c e5ad ef3c
000002c0: 7c3e 7c3e fd3b d7be 8559 173e b1b8 0c3e
000002d0: fa4e 4e3d 98d0 083f f244 7ebe 6b02 ce3d
000002e0: aa9a 253e 6463 a53d 76c3 e8bc 3edd af3d
000002f0: 9999 433e 7f12 43be 751f e13e 71ce f53c
00000300: 9be9 1c3d c101 cb3e 53df 693d eec8 073f
00000310: 4a99 8abe e372 0e3e 3cf6 3b3d 6a17 b7be
00000320: 2756 ab3b 44db ebbd 7fce 9abd 8343 cc3e
00000330: e8c4 ac3d 61a2 20be ea00 3dbf 4526 90be
00000340: 7de6 bd3e 063a 9d3d 228a 633e 0335 5ebd
00000350: 577a 813e 573e 33be 4c4f 1bbe d785 8f3c
00000360: d055 8fbd b612 863e 7516 6ebe ca83 a53c
00000370: ca3c fd3e df91 a53c 7655 ea3e 1b32 3c3c
00000380: cbb0 f8bd e5fd 0abd d401 9f3d 1cbf 3dbc
00000390: 2da8 373e 7a5c 1a3d a683 60be 08eb c53d
000003a0: 88e9 0d3d 9dd6 bdbd ade0 0dbe f1c0 ecbe
000003b0: 2065 623d 2cc5 3bbd 2580 ca3c 9496 84bd
000003c0: 7648 1d3f 20b2 c03e f6dd 883c f577 8cbe
000003d0: fafa bbbb 7366 dfbe a279 b0bd fe48 1b3e
000003e0: 26cd 713d 6214 babd 45f5 773e b01f 49bd
000003f0: 2bd5 123f d225 cc3d 6772 c73e 73dd 53bf

fc2.bias f4 [60]
-0.04114432 0.001542723 0.11235059 0.4050009 0.22086252 0.197268 0.0781776 0.06651899
0.034425125 -0.117938 -0.32956198 0.34919667 0.5130919 0.27040645 0.31419274 0.083260626
0.2523853 -0.01505382 0.08490358 -0.09657687 -0.28325692 0.0122441305 -0.44292718 0.35135987
0.47384506 -0.18925576 0.01580097 -0.003968983 -0.07769767 0.14922512 0.2898482 0.45282137
-0.7511157 0.11152779 -0.008274739 -0.013907954 0.4461319 -0.15325543 0.3186435 0.080950275
0.14282262 -0.30324486 0.089539334 0.46653926 0.081946686 0.15665413 0.5319438 -0.45923513
0.51220584 -0.16389337 -0.019546473 -0.07719855 -0.02624116 0.20084734 0.086061805 0.33959484
-0.11157234 -0.14079778 0.6729943 -0.11906862
00000000: f286 28bd 3235 ca3a 1118 e63d 475c cf3e
00000010: c929 623e 9f00 4a3e 941b a03d 1c3b 883d
00000020: 5c01 0d3d 7a89 f1bd 59bc a8be e8c9 b23e
00000030: fe59 033f b772 8a3e dfdd a03e 8c84 aa3d
00000040: a538 813e 4ca4 76bc eee1 ad3d 18ca c5bd
00000050: 0d07 91be 9b9b 483c 5ac7 e2be 71e5 b33e
00000060: d29b f23e 43cc 41be 0971 813c 3e0e 82bb
00000070: f51f 9fbd 78ce 183e fc66 943e 34d8 e73e
00000080: 1e49 40bf af68 e43d c592 07bc 30de 63bc
00000090: 676b e43e feee 1cbe 3e25 a33e 42c9 a53d
000000a0: 1840 123e e942 9bbe 6660 b73d 3cde ee3e
000000b0: aad3 a73d f169 203e 782d 083f de20 ebbe
000000c0: ec1f 033f aad3 27be ed1f a0bc 461a 9ebd
000000d0: b4f7 d6bc edaa 4d3e 2c41 b03d 60df ad3e
000000e0: 0a80 e4bd 4b2d 10be 5b49 2c3f 40da f3bd

out.weight f4 [10, 60]
-0.076370925 0.023748446 -0.5912554 0.21779886 0.36700413 0.3708773 0.44941813 -1.1416792
-0.7736699 0.1658059 -0.30089512 0.25208047 0.3117663 0.32620236 -0.96549743 -1.6539598
0.13576885 -0.21203424 -0.42640784 -0.13024068 -0.11408504 0.0910565 -0.08466675 0.2271753
-0.21613705 -0.09303034 -0.12759396 0.013104096 -0.06388417 -0.22675304 -0.43739823 0.07402516
0.4825667 0.31450808 0.14463893 -0.041048244 -0.08144011 0.21107776 -0.1029204 0.055951416
-0.44152153 -0.114038564 0.2765015 -0.49228546 -0.018473761 0.047412418 0.33599758 -0.68352246
-0.7195885 0.029812178 0.15451878 0.28576246 -0.14238144 -1.4505452 -0.0029522318 -0.17520817
-0.122825995 0.46657166 -0.3447639 0.20474796 -0.06974251 -1.0920749 -0.83938265 0.5524359
-0.0173675 0.22900607 -0.24791901 -0.35867003 0.1005432 0.087995544 -0.99426985 -1.209471
0.019212034 0.22837101 -0.39377683 -1.4682199 -1.6610011 0.05160502 0.22067486 -0.06722288
0.0049443 0.31549937 -0.24899742 -0.63569605 -0.34281895 0.5419782 -0.093407825 -0.07913592
-0.050643947 -0.61818737 -0.61520094 -0.8799983 0.6658598 -1.4326047 0.110373154 0.030382989
0.1935373 0.34332997 -0.14527287 0.0776193 0.29090676 -1.2309738 0.2869448 0.008113637
0.5715757 -0.32902297 0.1557415 0.4748982 -2.751282 -0.13540035 -1.0487758 -0.28284115
-0.065267734 0.47302023 -0.3985799 0.20641269 0.27620286 -0.16719124 0.45988208 -0.0055627776
-0.08173192 0.16517878 -0.26570255 0.16938896 0.22876066 -0.52951974 0.082854904 -1.0625101
-0.32168424 0.24602485 -0.0888476 -0.007345789 -0.01692061 -1.4444257 0.1955474 -0.7388285
0.008283967 0.014950614 -0.01840146 -0.21196567 0.16534753 -0.34273064 0.025690753 -0.6090534
0.22802326 -0.30748045 -0.02121401 -0.076025024 -0.010102096 0.25310344 0.19180313 0.14512923
0.118300505 0.04306634 -0.7401651 0.19098966 0.26384524 0.21347983 0.21659084 -1.4954486
0.0012903594 0.11982489 -0.7146805 -0.1637979 -0.7396587 0.46888795 0.10399074 0.04960091
-0.08101193 0.062291205 -0.15469556 -0.39418784 -0.16403694 -0.25987554 0.1616289 -0.6745912
0.3945032 -0.5870701 0.25714755 0.03658299 -0.12898743 0.26137257 -1.2275857 -0.1856313
-0.021052498 0.65584874 -0.18898319 0.28504717 0.17793687 -1.1994882 0.37655053 -0.45766112
-0.4363534 0.2807872 -0.443997 -0.582299 0.18085365 0.1211465 0.1855954 -0.0870579
-0.024171507 0.12194034 0.045508713 0.521658 -1.2367182 -0.34794274 0.028338632 0.07044184
0.060764402 0.03699928 0.06813238 -0.097985335 -0.48514542 -1.0725559 -0.3725694 0.2512526
0.12807119 -0.14391068 -0.09863445 0.43934965 0.038753223 0.016200047 -0.4695062 0.26322266
-0.26975256 -0.5690701 0.30823314 -0.9166234 -0.19708003 0.014256429 0.05269883 0.11782078
-0.114356935 0.5331633 -1.1111373 0.15523814 0.12020957 0.011796331 0.19745766 -0.4686604
-0.11873715 0.20187198 0.17516442 -0.8652867 0.035695855 -0.18974033 -1.2054006 -0.683067
0.45736486 -0.2849665 0.20909713 0.30254644 -0.24940938 -0.53287137 -0.5823577 0.44076845
00000000: 5c68 9cbd 1a8c c23c 845c 17bf aa06 5f3e
00000010: f7e7 bb3e a1e3 bd3e 221a e63e 8b22 92bf
00000020: 3b0f 46bf 06c9 293e ed0e 9abe b110 813e
00000030: d59f 9f3e ff03 a73e d72a 77bf f4b4 d3bf
00000040: fd06 0b3e 811f 59be 2152 dabe d05d 05be
00000050: 6ba5 e9bd d57b ba3d c365 adbd a4a0 683e
00000060: 0853 5dbe b186 bebd fea7 02be 90b2 563c
00000070: b4d5 82bd f331 68be a9f2 dfbe 819a 973d
00000080: fc12 f73e 3407 a13e 3a1c 143e 3422 28bd
00000090: 13ca a6bd c524 583e eec7 d2bd 502d 653d
000000a0: 1c0f e2be 0d8d e9bd 9b91 8d3e d70c fcbe
000000b0: 4956 97bc 8633 423d e007 ac3e 54fb 2ebf
000000c0: f436 38bf ab38 f43c 2c3a 1e3e 754f 923e
000000d0: 71cc 11be 77ab b9bf 3b7a 41bb c569 33be
000000e0: 328c fbbd 7be2 ee3e e584 b0be 73a9 513e
000000f0: 29d5 8ebd 1cc9 8bbf c8e1 56bf 706c 0d3f
00000100: 4a46 8ebc 9180 6a3e 7bde 7dbe 99a3 b7be
00000110: 98e9 cd3d 0237 b43d 7888 7ebf f2cf 9abf
00000120: 8e62 9d3c 17da 693e 1e9d c9be a1ee bbbf
00000130: af9b d4bf c95f 533d 97f8 613e 26ac 89bd
00000140: cb03 a23b 2289 a13e 2ef9 7ebe fabc 22bf
00000150: f785 afbe 15bf 0a3f 9a4c bfbd 0312 a2bd
00000160: 0770 4fbd 8741 1ebf cf7d 1dbf 9247 61bf
00000170: ca75 2a3f 975f b7bf 520b e23d bfe5 f83c
00000180: a42e 463e f2c8 af3e 69c2 14be def6 9e3d
00000190: bbf1 943e 8d90 9dbf 6eea 923e 0fef 043c
000001a0: c952 123f b375 a8be b37a 1f3e db25 f33e
000001b0: 0115 30c0 64a6 0abe 493e 86bf 8ed0 90be
000001c0: 17ab 85bd b52f f23e aa12 ccbe d95d 533e
000001d0: 766a 8d3e 2e34 2bbe aa75 eb3e f647 b6bb
000001e0: 1163 a7bd a024 293e 2a0a 88be 4d74 2d3e
000001f0: 3c40 6a3e 9b8e 07bf d5af a93d 5500 88bf
00000200: ccb3 a4be f0ed 7b3e bbf5 b5bd f2b4 f0bb
00000210: 179d 8abc f1e2 b8bf 943d 483e dd23 3dbf
00000220: 7ab9 073c 6cf3 743c a9be 96bc 870d 59be
00000230: dd50 293e 647a afbe 6a75 d23c ecea 1bbf
00000240: ee7e 693e 146e 9dbe 01c9 adbc 02b3 9bbd
00000250: 4383 25bc c696 813e 0a68 443e c29c 143e
00000260: 8947 f23d 5566 303d 767b 3dbf cb92 433e
00000270: b916 873e 759a 5a3e fdc9 5d3e dc6a bfbf
00000280: 4721 a93a c066 f53d 4df5 36bf a3ba 27be
00000290: 465a 3dbf 1512 f03e 19f9 d43d 532a 4b3d
000002a0: 95e9 a5bd 1025 7f3d 8368 1ebe fdd2 c9be
000002b0: 4df9 27be 680e 85be 0c82 253e 02b2 2cbf
000002c0: 53fc c93e 3a4a 16bf d8a8 833e 0cd8 153d
000002d0: 4815 04be a0d2 853e 8721 9dbf 2216 3ebe
000002e0: 4a76 acbc b4e5 273f cf84 41be b4f1 913e
000002f0: 1535 363e d488 99bf 3bcb c03e 8f52 eabe
00000300: b669 dfbe 57c3 8f3e 9353 e3be 8c11 15bf
00000310: b331 393e a81b f83d b80c 3e3e 6a4b b2bd
00000320: 5303 c6bc dbbb f93d 5867 3a3d 618b 053f
00000330: c84c 9ebf 8d25 b2be 6b26 e83c d043 903d
00000340: 18e4 783d 8f8c 173d fd88 8b3d 89ac c8bd
00000350: fb64 f8be 8349 89bf 6bc1 bebe 2ea4 803e
00000360: 1825 033e 525d 13be dc00 cabd 70f2 e03e
00000370: b3bb 1e3d f6b5 843c 1e63 f0be 1fc5 863e
00000380: 021d 8abe 94ae 11bf bcd0 9d3e d5a7 6abf
00000390: 59cf 49be cc93 693c bada 573d 054c f13d
000003a0: f833 eabd 647d 083f bf39 8ebf bff6 1e3e
000003b0: 6f30 f63d 6645 413c 5732 4a3e 42f4 efbe
000003c0: 772c f3bd 87b7 4e3e 4d5e 333e 6e83 5dbf
000003d0: d135 123d 4a4b 42be 914a 9abf 7bdd 2ebf
000003e0: ba2b ea3e 21e7 91be 8f1d 563e 5ee7 9a3e
000003f0: 2c65 7fbe 426a 08bf 6515 15bf 67ac e13e

out.bias f4 [10]
-0.17352454 -0.030517826 0.17248939 0.25571528 -0.36401328 -0.5067434 0.05441113 0.22770824
-0.12219552 0.045012236
00000000: 6bb0 31be 8500 fabc 0fa1 303e 1ded 823e
00000010: f35f babe efb9 01bf 34de 5e3d 592c 693e
00000020: a541 fabd c05e 383d
