model/saved_models/model-3.pth (torch_old, 133508 bytes, 10 tensors)

conv1.weight f4 [6, 1, 5, 5]
0	0x3e29e1b3	0.16590004
1	0xbcb487bd	-0.022037381
2	0x3e98e0a1	0.29858878
3	0x3e945a45	0.2897512
4	0x3e68c583	0.22731595
5	0x3e5e3208	0.21698773
6	0xbd539dc6	-0.051664136
7	0x3e510f82	0.20416072
8	0x3e9b2568	0.30301976
9	0xbd7a95b7	-0.061177935
10	0xbdecf6a8	-0.115704834
11	0xbea97c1e	-0.33102506
12	0x3e7edff2	0.24890116
13	0xbdd4e1d0	-0.10394633
14	0xbb9ef865	-0.0048513883
15	0xbeab0bbe	-0.33407396
16	0xbef08895	-0.46979204
17	0x3dab0f70	0.08352554
18	0x3dd9c3e9	0.1063307
19	0xbe80edee	-0.25181526
20	0xbeff245f	-0.49832436
21	0xbd3c8e48	-0.046034127
22	0x3d0bca9f	0.03412878
23	0xbd65d32e	-0.0561096
24	0xbde7fab0	-0.11327112
25	0x3dd9b5b7	0.106303625
26	0xbe07a8a3	-0.13247924
27	0xbcf661c1	-0.03007591
28	0x3e629ca6	0.22130069
29	0xbd56027c	-0.052248463
30	0xbe48f55c	-0.19624847
31	0x3be41ce8	0.0069614537
32	0x3e3cfbae	0.18455383
33	0xbd161f27	-0.036650803
34	0xbe357aee	-0.17722675
35	0x3d822540	0.06354761
36	0xbde7fad1	-0.11327136
37	0x3ed39dc6	0.4133131
38	0xbe3a4849	-0.18191637
39	0xbe3bf27a	-0.18354216
40	0x3e2ec8d5	0.17068799
41	0xbe7fe869	-0.24991001
42	0x3ef5644d	0.47928086
43	0x3e866c93	0.2625471
44	0xbe86f038	-0.26355147
45	0x3dfb78da	0.1227891
46	0xbd640515	-0.05566891
47	0x3e6a7906	0.2289773
48	0x3ecd7251	0.4012628
49	0xbdefd82a	-0.11711152
50	0x3e1ace16	0.15117678
51	0x3e9e4e1d	0.3091897
52	0x3ec5b2d7	0.38613006
53	0xbe4f327c	-0.20234102
54	0xbee69d24	-0.45041764
55	0x3df5e60a	0.12006767
56	0x3eff561f	0.49870393
57	0x3e978831	0.29596093
58	0x3d6c823f	0.0577414
59	0xbd845d48	-0.064631045
60	0x3d33398d	0.043756057
61	0xbbc4df42	-0.0060080597
62	0x3ef34e40	0.47520638
63	0xbe4ff838	-0.20309532
64	0x3e3c8f3e	0.18414018
65	0xbded6bc5	-0.11592821
66	0xbe6b01a4	-0.22949845
67	0xbdfc6f5c	-0.123259276
68	0xbe1975e2	-0.14986375
69	0x3e00f7a9	0.12594475
70	0x3cb991db	0.022652557
71	0xbe43c9f7	-0.19120012
72	0xbef56a6f	-0.47932765
73	0xbe90bba9	-0.28268173
74	0xbe15f2c7	-0.14643393
75	0x3e79fadc	0.24412102
76	0x3e32a9b7	0.17447554
77	0xbe2995f6	-0.16561112
78	0x3e8c7768	0.2743485
79	0xbce891c8	-0.028389826
80	0xbe9725f5	-0.29521146
81	0xbd7496f5	-0.059714276
82	0xbad8fa3c	-0.0016554068
83	0x3cc17611	0.023615869
84	0x3e5b92e0	0.21442747
85	0xbe793297	-0.24335705
86	0x3d1fb748	0.03899315
87	0x3e5e9344	0.21735865
88	0xbdcc6f47	-0.09982162
89	0x3e49d087	0.19708453
90	0xbde253a4	-0.110511094
91	0xbd672f47	-0.05644157
92	0x3e9b2123	0.3029872
93	0x3dfedd2c	0.12444529
94	0x3e94dc40	0.29074287
95	0xbe90aeee	-0.2825846
96	0x3deeb51a	0.11655636
97	0x3e70f897	0.2353233
98	0x3d890395	0.06690136
99	0xbc4546e6	-0.012040829
100	0xbf84c089	-1.0371257
101	0xc059ca5c	-3.402976
102	0xc0209ab0	-2.5094414
103	0xbef45e2b	-0.47728094
104	0x3e6999da	0.22812596
105	0xbe29a7ac	-0.16567868
106	0xbfa7ed5e	-1.3119314
107	0xbf7e6c94	-0.9938443
108	0xbdb9ce7b	-0.09072586
109	0x3ea1ab65	0.31576076
110	0x3eda5e46	0.4265005
111	0xbe8c3776	-0.27386063
112	0xbe2feac7	-0.17179404
113	0x3e916399	0.283963
114	0xbe4a3c22	-0.19749501
115	0x3b7a908c	0.003823313
116	0xbd94c26d	-0.07263646
117	0x3e974395	0.29543748
118	0x3e0bed1a	0.13664666
119	0xbeb2dd7b	-0.349346
120	0x3e8db097	0.2767379
121	0x3e58861e	0.21144912
122	0xbd3f37c3	-0.046684038
123	0x3ec673a6	0.38760108
124	0xbd8e4c44	-0.0694814
125	0xbd9dfe2c	-0.07714495
126	0xbe6b169c	-0.22957844
127	0x3d6887c2	0.056770094
128	0x3e0ba591	0.13637377
129	0x3ddac9a5	0.10682992
130	0xbe20cf45	-0.15704067
131	0xbeb7ff06	-0.35936755
132	0x3f0c7ea9	0.5488077
133	0xbcf85ac8	-0.030316725
134	0xbd299590	-0.0414024
135	0xbe595329	-0.2122313
136	0xbe90b21a	-0.2826088
137	0x3ea55e37	0.32298443
138	0x3e8b8fde	0.272582
139	0xbdd29c3f	-0.10283708
140	0x3ca2c577	0.01986955
141	0xbef0418f	-0.46925017
142	0x3caeca2f	0.021336643
143	0x3e9d6898	0.3074386
144	0x3dfa5d58	0.12224835
145	0x3e717ad1	0.23582007
146	0xbea694e3	-0.32535467
147	0xbe666d6f	-0.22502683
148	0x3e1bc1ab	0.15210597
149	0x3e1da852	0.1539624

conv1.bias f4 [6]
0	0x3e8afeae	0.2714743
1	0xbd2dd9b7	-0.042443957
2	0x3cc9fbfa	0.024656285
3	0x3d0b5988	0.03402093
4	0x3ed63ed4	0.4184481
5	0x3d109373	0.03529687

conv2.weight f4 [12, 6, 5, 5]
0	0xbe43ca94	-0.19120246
1	0xbe4b6dab	-0.19866054
2	0x3e4530d7	0.19256912
3	0x3d2c5f04	0.0420828
4	0x3e25638c	0.16151255
5	0x3d3a21d1	0.045442406
6	0xbe7c0816	-0.2461246
7	0xbd831156	-0.06399791
8	0xbe3c4220	-0.183846
9	0x3e4ab448	0.19795334
10	0xbe24949f	-0.1607232
11	0x3d5c6f7e	0.053817265
12	0x3da0e494	0.07856098
13	0xbb47c39b	-0.003048158
14	0x3ebf66b2	0.37383038
15	0x3d66e3f3	0.056369733
16	0x3b317582	0.0027078097
17	0xbe08e91c	-0.13370174
18	0x3d2f5364	0.042804137
19	0xbe56e02e	-0.20983955
20	0x3d6eae2a	0.058271565
21	0xbe041643	-0.12899117
22	0xbda78435	-0.08179513
23	0x3e8b5a4a	0.27217323
24	0xbd9c7e81	-0.07641316
25	0xbe940d10	-0.28916216
26	0xbe30a3ce	-0.17249987
27	0x3e256654	0.16152316
28	0x3d46eb2c	0.04856412
29	0x3e2251c2	0.158515
30	0xbe6b662e	-0.22988197
31	0xbd99e2f6	-0.075139925
32	0xbd9f7810	-0.07786572
33	0x3dd60f0b	0.10452088
34	0xbd47cf90	-0.04878193
35	0x3c0a75a3	0.008450898
36	0x3d9a4140	0.07531977
37	0xbd12d138	-0.035844058
38	0xbd0a6329	-0.033785973
39	0xbce49d14	-0.027906932
40	0x3dfdb71d	0.12388442
41	0x3df02a0d	0.117267706
42	0x3d98f1e2	0.074680105
43	0xbd040955	-0.032235462
44	0x3e128064	0.1430679
45	0x3bf1882d	0.0073709697
46	0xbe2cafd3	-0.16863947
47	0xbe166571	-0.14687134
48	0xbe619cd7	-0.22032486
49	0xbd491d9f	-0.049100515
50	0xbe54ada0	-0.20769358
51	0xbe18dd7a	-0.14928237
52	0xbcafb122	-0.021446768
53	0xbe03925a	-0.12848797
54	0xbb3bfd19	-0.0028684794
55	0x3c24d48d	0.010060442
56	0xbb82a758	-0.003987234
57	0xbd029a92	-0.03188569
58	0x3e12b27a	0.14325896
59	0x3ea83389	0.32851818
60	0xbe62de4e	-0.22155115
61	0x3cb0fc26	0.021604609
62	0x3e67482a	0.22586122
63	0x3e9ca8ce	0.30597538
64	0x3e1c1eae	0.15246078
65	0xbd75bcbf	-0.059994455
66	0xbe83df26	-0.25756186
67	0x3cd025ac	0.025408588
68	0x3efa230d	0.48854867
69	0xbd014c41	-0.031566862
70	0x3e120c72	0.1426256
71	0x3e3bb88a	0.18332115
72	0x3ed5d98a	0.41767532
73	0x3e971555	0.29508463
74	0x3ca3d593	0.019999301
75	0xbeba0ba6	-0.36337012
76	0xbe4fcc62	-0.2029281
77	0x3d8e60ad	0.06952033
78	0x3eb15cfd	0.34641257
79	0x3ea38070	0.31933928
80	0x3ce8ef2b	0.028434357
81	0x3d649442	0.055805452
82	0x3e514b1b	0.20438807
83	0xbd6f21de	-0.058381908
84	0xbd0a87c5	-0.033820886
85	0x3daefc59	0.08544225
86	0xbbc68ac8	-0.0060590245
87	0x3d47ab0e	0.048747115
88	0xbdd22537	-0.102610044
89	0xbd031648	-0.03200367
90	0x3e246c0b	0.1605684
91	0xba5eefac	-0.0008504342
92	0xbd9149b5	-0.070941366
93	0xbe0148e2	-0.12625459
94	0xbc3f69e7	-0.011682964
95	0x3e5e4c61	0.21708824
96	0x3d3d5e94	0.046232775
97	0xbcc179b8	-0.02361761
98	0xbd8493b5	-0.064734854
99	0xbcee1e80	-0.029067278
100	0x3ea2f262	0.31825548
101	0x3f42632a	0.7593256
102	0x3ec25ff9	0.37963846
103	0xbe963b8d	-0.2934231
104	0xbe330aaa	-0.17484537
105	0x3d027582	0.031850345
106	0x3e6cc6dc	0.23122734
107	0x3ea6183c	0.32440364
108	0xbcb541ee	-0.022126164
109	0xbebb5874	-0.36590922
110	0x3e2c70fd	0.16839977
111	0x3e3761b6	0.17908368
112	0xbe626c09	-0.22111525
113	0xbe7dc223	-0.24781089
114	0xbe0759fc	-0.1321792
115	0xbea14a7c	-0.3150214
116	0x3e79bd18	0.2438854
117	0xbec220a0	-0.37915516
118	0x3d593a47	0.053034093
119	0x3e80a838	0.2512834
120	0xbc0f367f	-0.00874102
121	0xbe340001	-0.17578126
122	0xbe723732	-0.23653868
123	0x3e98cc52	0.29843384
124	0x3eaaad37	0.33335277
125	0x3e61238f	0.21986221
126	0x3e2c777f	0.16842459
127	0x3e91ea3f	0.28499028
128	0x3de0ad39	0.109705396
129	0xbc79bda1	-0.015242965
130	0xbe7440e3	-0.23852877
131	0x3e2aa62c	0.16664952
132	0x3d3cf490	0.04613167
133	0x3b2827df	0.002565853
134	0xbe2aa19b	-0.1666321
135	0x3e302d2d	0.17204733
136	0x3dd35204	0.103183776
137	0xbe113043	-0.14178567
138	0xbef12616	-0.4709937
139	0xbef33473	-0.47500953
140	0x3dbf1da7	0.093318276
141	0xbe88386c	-0.26605546
142	0xbedcadc8	-0.43101335
143	0xbeb963ad	-0.3620886
144	0xbdb915ef	-0.090373866
145	0xbded99fd	-0.116016366
146	0xbf1ca956	-0.61195886
147	0xbf01b25e	-0.5066279
148	0xbd0d7b02	-0.034541138
149	0x3d97f7d9	0.0742032
150	0xbd29692f	-0.041360077
151	0xbe4be1cb	-0.19910352
152	0xbbea7639	-0.0071552065
153	0x3de7cb68	0.113180935
154	0x3ea52879	0.3225744
155	0x3dc77a9a	0.09740181
156	0x3dd5982c	0.10429415
157	0x3e22e61b	0.15908091
158	0x3e95cd62	0.29258257
159	0xbcc7bdea	-0.02438255
160	0x3d1c946b	0.03822748
161	0x3d0e7271	0.03477711
162	0xbcf81046	-0.030281197
163	0x3e181130	0.14850307
164	0x3d81aba5	0.06331567
165	0xbe877f5d	-0.26464358
166	0xbc091272	-0.008366214
167	0xbdcc499b	-0.09974977
168	0xbc359b7f	-0.011084436
169	0x3d8446f4	0.06458846
170	0xbe81f1b9	-0.25379732
171	0xbe708954	-0.23489887
172	0x3d34a33c	0.044100985
173	0x3e3465f8	0.17617023
174	0x3ee98092	0.45605904
175	0xbe387013	-0.18011503
176	0xbde1dcae	-0.110284194
177	0xbd5c07b5	-0.053718287
178	0xbdffd84e	-0.12492429
179	0x3c785620	0.015157253
180	0xbe3dfe74	-0.18554097
181	0xbdf8ee0d	-0.121547796
182	0x3d15d894	0.036583498
183	0x3d216100	0.039399147
184	0xbd51eafd	-0.051249493
185	0xbcbffec6	-0.023436915
186	0x3d496718	0.049170583
187	0x3ddd461e	0.108043894
188	0xbc9301f6	-0.017945271
189	0xbd0a0056	-0.033691727
190	0x3dd35ecb	0.10320815
191	0x3dd28c6c	0.102806896
192	0x3e824f89	0.25451306
193	0xbdc33fb8	-0.09533638
194	0xbd824e58	-0.06362599
195	0x3e48aae2	0.19596437
196	0x3dfec503	0.12439921
197	0x3e3858fd	0.18002696
198	0xbcfc433d	-0.03079378
199	0x3d9180fb	0.07104679
200	0x3e04b442	0.12959388
201	0x3e9466a3	0.28984556
202	0x3dc60fdf	0.09670996
203	0x3cebfed1	0.02880803
204	0x3d7c10ea	0.061539568
205	0xbe25ee4d	-0.16204186
206	0x3ddae5fd	0.10688398
207	0x3ded12cb	0.1157585
208	0x3ecc3614	0.39885008
209	0x3e068453	0.13136415
210	0xbe01aa29	-0.12662567
211	0xbd7a7af0	-0.0611524
212	0xbc6837d6	-0.014173469
213	0xbe34d758	-0.17660272
214	0x3d8ef86d	0.06980977
215	0xbdd86cda	-0.10567637
216	0x3e00c7a6	0.1257616
217	0x3e0050f0	0.12530875
218	0xbdd407e4	-0.103530675
219	0x3e0ed512	0.13948467
220	0x3dd7e9c3	0.105426334
221	0xbd2d6f0c	-0.04234223
222	0x3e0be6fc	0.13662332
223	0x3ddd5bec	0.10808548
224	0x3e052c59	0.13005199
225	0xbe12ba7e	-0.14328954
226	0xbe23daf2	-0.1600149
227	0xbe17e693	-0.14834051
228	0xbe4e442f	-0.20143197
229	0x3c6a0f75	0.014285912
230	0xbe08c5cb	-0.13356702
231	0xbe285169	-0.16437306
232	0x3cd3dc0a	0.025861759
233	0xbd92349f	-0.07138943
234	0xbdb46679	-0.088086076
235	0xbd145958	-0.036218017
236	0x3cf2aa92	0.02962235
237	0xbdfe30f5	-0.124116816
238	0xbc49295f	-0.01227793
239	0x3c7daec1	0.015483559
240	0x3d93b8af	0.0721296
241	0x3c360c1b	0.011111285
242	0xbe2bad82	-0.16765407
243	0xbe105ca2	-0.14097837
244	0x3d6f32de	0.05839812
245	0x3e8afadc	0.27144516
246	0x3d3c0b42	0.045909174
247	0xbbd55028	-0.0065097995
248	0xbd7221d5	-0.059114296
249	0x3bbc550b	0.0057474426
250	0x3e9322cf	0.28737494
251	0x3e716410	0.23573327
252	0x3ead0fbb	0.33801064
253	0xbda780c4	-0.08178857
254	0xbe6941d2	-0.22779015
255	0x3eb59fa2	0.35473353

conv2.bias f4 [12]
0	0x3dc199d1	0.09453166
1	0x3d2dbf99	0.04241905
2	0x3e7be527	0.24599133
3	0xbe122b71	-0.14274384
4	0xbca577a7	-0.020198656
5	0x3d8495c4	0.06473878
6	0xbd5739ce	-0.05254536
7	0xbe278c30	-0.16362071
8	0xbce50927	-0.027958466
9	0x3e3c6b07	0.18400203
10	0x3e1b42e3	0.15162234
11	0x3e798552	0.24367264

fc1.weight f4 [120, 192]
0	0xbe20cfb7	-0.15704237
1	0x3db0f201	0.086399086
2	0xbc5283b1	-0.0128487805
3	0xbdc59598	-0.09647673
4	0x3d19a376	0.037509404
5	0xbd1b08fa	-0.037850358
6	0xbe1cf132	-0.15326384
7	0x3d9a6259	0.075382896
8	0x3d8a0221	0.06738687
9	0xbd075a25	-0.033044953
10	0xbd2adc1b	-0.041713815
11	0x3df37ed7	0.11889427
12	0x3d23ddba	0.040006377
13	0x3cbd1ecb	0.023085972
14	0x3d961361	0.07327915
15	0x3de0043f	0.1093831
16	0xbe057386	-0.1303235
17	0x3d849484	0.064736396
18	0xbe26a29a	-0.16272965
19	0x3ca13aa4	0.019681282
20	0x3cd4a129	0.025955753
21	0x3c3221a2	0.0108722765
22	0xbbeca9e7	-0.0072224024
23	0x3d3095db	0.043111663
24	0x3e27ec33	0.16398697
25	0x3e17e68a	0.14834037
26	0x3c3c7e35	0.0115046995
27	0xbd660d9f	-0.056165334
28	0x3ca2e271	0.019883366
29	0xbc85d6d1	-0.016337784
30	0x3dc99209	0.09842307
31	0xbe1d48d9	-0.1535982
32	0xbd1dc0f8	-0.038514107
33	0x3c8b321b	0.016991666
34	0xbe80aed9	-0.25133398
35	0xbdebb391	-0.11508859
36	0x3e290f53	0.16509752
37	0x3ead3ea5	0.33836856
38	0x3cb20743	0.021731978
39	0x3e0c71a1	0.13715221
40	0xbcede9ca	-0.029042143
41	0xbe7cf4bd	-0.24702735
42	0xbc405036	-0.011737874
43	0xbcfef0fc	-0.03112077
44	0x3c04ff71	0.008117543
45	0xbd58b0c9	-0.05290297
46	0x3b70bbdb	0.0036733064
47	0xbdb57e80	-0.088620186
48	0xbd843ed7	-0.06457298
49	0x3e05a736	0.13052067
50	0xbe0e420d	-0.13892384
51	0x3da31316	0.07962625
52	0xbca9d487	-0.020731224
53	0x3d981663	0.07426145
54	0x3d9b86cf	0.07594072
55	0x3e1b96d4	0.15194255
56	0xbd1e8567	-0.03870144
57	0x3d214cc3	0.039379846
58	0x3d1821b7	0.037141528
59	0x3cdd959f	0.027048884
60	0x3b3da740	0.00289388
61	0x3e9d30bf	0.30701253
62	0xbe0d1392	-0.13776997
63	0xbdb58bab	-0.0886453
64	0xbdcb783f	-0.099350445
65	0xbd5375e4	-0.0516261
66	0x3da92180	0.08258343
67	0x3e74df44	0.23913294
68	0x3e21fb3f	0.15818499
69	0xbd4f0aef	-0.050547536
70	0x3df1f3b3	0.1181406
71	0xbdcfd2f2	-0.101476565
72	0x3e01709b	0.12640612
73	0x3dc6f6ca	0.0971504
74	0x3d8f4952	0.069964066
75	0x3d3e95bf	0.046529528
76	0xbd17e45e	-0.037083022
77	0x3e176187	0.14783297
78	0x3e2994b7	0.16560636
79	0x3cf84d7c	0.030310385
80	0xbdc9dce9	-0.098565884
81	0xbd2c1a9d	-0.042017568
82	0x3c77747c	0.015103456
83	0x3daa9e6d	0.083309986
84	0xbc367b17	-0.011137745
85	0xbdaa0a6c	-0.08302769
86	0x3d8398d7	0.06425636
87	0x3caabe20	0.020842612
88	0x3e201f9c	0.15637058
89	0xbd93361d	-0.07188056
90	0x3e1b4335	0.15162356
91	0x3cbfebbd	0.023427838
92	0x3dd5f2ce	0.10446702
93	0xbcf2f1d3	-0.029656326
94	0x3d84a4fc	0.06476781
95	0x3e29022e	0.16504738
96	0xbd1464a7	-0.036228802
97	0x3d6743de	0.056461208
98	0x3e1829fa	0.14859763
99	0xbc8e3a15	-0.01736168
100	0x3de5acbd	0.11214588
101	0x3b825712	0.0039776647
102	0xbd3c9c98	-0.046047777
103	0xbcbd42df	-0.023103176
104	0xbd72f449	-0.059315
105	0xbce009de	-0.027348455
106	0xbe1b7a6d	-0.1518342
107	0x3c870e84	0.016486414
108	0xbe09ecdd	-0.13469262
109	0xbc6d456b	-0.014481883
110	0xbe2d7922	-0.1694074
111	0xbde631b0	-0.11239946
112	0xbd120cbc	-0.035656676
113	0x3eb9857b	0.3623465
114	0xbe8783c2	-0.2646771
115	0x3dd7deaa	0.10540517
116	0x3e19eec3	0.15032487
117	0xbdda408c	-0.106568426
118	0xbd59fc58	-0.05321917
119	0xbe209663	-0.15682368
120	0x3e0c59f1	0.13706185
121	0xbd68366c	-0.056692526
122	0xbe4f0b32	-0.20219114
123	0x3d939e4f	0.07207929
124	0xbd08331a	-0.03325186
125	0x3d888062	0.06665112
126	0xbd912979	-0.070879884
127	0x3d111f5e	0.035430305
128	0xbe4f6ab7	-0.20255552
129	0xbd6fd752	-0.058554955
130	0x3e0c40f9	0.1369666
131	0x3e0afd39	0.1357316
132	0x3dafd4d8	0.085855186
133	0xbe060be9	-0.13090481
134	0xbe438a01	-0.19095613
135	0xbee8b6a1	-0.45451835
136	0xbd92f3dd	-0.071754195
137	0xbd85eb37	-0.06539004
138	0x3dc56825	0.096390046
139	0xbea9c546	-0.3315832
140	0xbdcc5561	-0.09977222
141	0x3d9da160	0.076967955
142	0x3c9f1384	0.019418485
143	0xbe2130f1	-0.15741326
144	0xbd00f938	-0.031487674
145	0x3e1f582e	0.15560982
146	0x3de924d1	0.11383975
147	0xbe0c638f	-0.13709854
148	0x3ddf5f9d	0.10906909
149	0x3e27c953	0.16385393
150	0xbd931f1c	-0.07183668
151	0x3d6a767c	0.0572419
152	0x3d9aeeba	0.07565065
153	0xbbf5af9c	-0.007497741
154	0x3df538c8	0.11973721
155	0x3d29859c	0.041387185
156	0xbd1ccb21	-0.038279656
157	0x3db40f8d	0.087920286
158	0xbd109214	-0.03529556
159	0xbdb23b89	-0.08702762
160	0xbdf0b01f	-0.117523424
161	0xbe6be088	-0.2303487
162	0xbeb3a7d5	-0.35088983
163	0x3dc8c598	0.09803313
164	0x3c7628bc	0.01502436
165	0xbde8ebde	-0.11373113
166	0x3db502da	0.088384345
167	0x3e58b863	0.21164088
168	0x3d7c3c9c	0.06158124
169	0x3d01b79c	0.031669244
170	0xbe7e96ec	-0.2486226
171	0xbd36d4cc	-0.044636533
172	0xbb460b45	-0.003021912
173	0xbd5e44d6	-0.054264866
174	0xbc712594	-0.014718432
175	0x3da651fd	0.08121107
176	0xbccb4602	-0.024813656
177	0xbd8114d4	-0.06302801
178	0x3cf28091	0.02960232
179	0xbe66d220	-0.22541094
180	0xbd29dd68	-0.041470915
181	0xbd82f9a7	-0.06395274
182	0xbd6ed230	-0.05830592
183	0x3db97c47	0.09056907
184	0xbdbe8bc2	-0.093040004
185	0x3e19d025	0.15020807
186	0x3de86fb0	0.11349428
187	0xbdede207	-0.11615377
188	0x3caf9716	0.021434348
189	0x3dde7cf1	0.108636744
190	0x3e0402cc	0.12891692
191	0xbd57eb03	-0.05271436
192	0x3dec4c0e	0.11537944
193	0x3dacf5df	0.08445334
194	0x3cdc7444	0.026910909
195	0xbeb387f7	-0.3506467
196	0x3e22b189	0.15888037
197	0xbdb88e66	-0.09011535
198	0x3da1ac75	0.07894222
199	0x3d905f75	0.07049457
200	0x3e0478d5	0.12936719
201	0x3dd386b2	0.103284255
202	0x3e2d6686	0.16933641
203	0x3d62f6e0	0.05541122
204	0x3dff512f	0.124666564
205	0x3df6e2b1	0.12054957
206	0x3d482741	0.04886556
207	0xbc319101	-0.010837794
208	0x3db170b5	0.08664075
209	0x3dc791b8	0.097445905
210	0xbd2bee84	-0.041975513
211	0xbe1a6080	-0.15075874
212	0x3c8e8ca5	0.017401049
213	0xbd8c933f	-0.068640225
214	0x3e04e652	0.12978485
215	0xbe705844	-0.2347117
216	0x3d03f486	0.032215618
217	0x3df4b9e2	0.11949517
218	0x3e4913ad	0.19636412
219	0x3baa7f37	0.0052031535
220	0xbe0bfa3e	-0.13669679
221	0xbd9f6a41	-0.07783938
222	0xbe1b1c00	-0.151474
223	0x3d897e08	0.06713492
224	0x3d2ef69f	0.042715665
225	0x3ecd7c8a	0.40134078
226	0x3d77ad21	0.060467843
227	0x3e5621ea	0.20911375
228	0x3c1719b2	0.009222435
229	0x3e173874	0.14767629
230	0xbcbdf8f4	-0.02319
231	0x3e8bc38f	0.27297637
232	0xbe08ccbb	-0.13359348
233	0x3dfdf2d5	0.12399832
234	0x3d78494e	0.060616784
235	0x3d43c8b3	0.047798824
236	0xbcddce39	-0.027075874
237	0xbbda025f	-0.0066531147
238	0x3e2c9fac	0.16857785
239	0xbe0de245	-0.13855846
240	0x3d83d3dc	0.06436893
241	0xbc3ce954	-0.011530239
242	0x3dc2dc3d	0.09514663
243	0x3e264c1a	0.16239968
244	0x3c10651c	0.008813169
245	0x3e65a1cd	0.22425003
246	0xbe481804	-0.19540411
247	0x3cabcc75	0.020971516
248	0xbd00e9cc	-0.031472966
249	0xbd7e7915	-0.06212719
250	0xbd677336	-0.056506358
251	0x3d820f8a	0.0635062
252	0x3d07295d	0.03299843
253	0xbb8b6572	-0.0042540366
254	0xbdd947c3	-0.106093906
255	0x3dfad324	0.12247303

fc1.bias f4 [120]
0	0xbe39e28d	-0.18152829
1	0xbdf05d94	-0.117365986
2	0xbd4ac9d9	-0.049508903
3	0xbcc6bdff	-0.02426052
4	0xbd4b0fc4	-0.049575582
5	0xbe6a099a	-0.22855225
6	0xbd7650c5	-0.06013562
7	0x3deaf72d	0.11472926
8	0x3d187650	0.037222207
9	0x3e3695e6	0.17830619
10	0x3d3109a5	0.04322209
11	0x3e4481bf	0.19190119
12	0x3c6fc2ae	0.014633818
13	0x3cb4133a	0.021981824
14	0x3e71d2da	0.2361559
15	0x3ccff6a0	0.025386155
16	0x3d558188	0.052125484
17	0xbe473269	-0.19452824
18	0x3dfdf1d9	0.123996444
19	0xbd8d34a0	-0.06894803
20	0x3ba29bf8	0.0049624406
21	0xbcec6c75	-0.02886031
22	0x3e7dcc0b	0.24784867
23	0x3e52e3ee	0.20594761
24	0x3e2418b1	0.16025044
25	0xbd4b4e9c	-0.049635515
26	0xbd388f5b	-0.04505859
27	0x3d9da423	0.07697322
28	0x3e05452d	0.1301467
29	0x3e3c3714	0.18380386
30	0xbce70e16	-0.028204959
31	0x3d93fe63	0.07226255
32	0x3dc7e1a2	0.09759833
33	0x3e07a92a	0.13248125
34	0xbd9e05bc	-0.077159375
35	0xbd847262	-0.06467129
36	0x3c0ade44	0.008475844
37	0xbd32aaab	-0.043619793
38	0x3d9582ce	0.0730034
39	0xbdbf1dee	-0.093318805
40	0x3d09c58e	0.03363567
41	0x3d4643ff	0.04840469
42	0xbcbc1b0e	-0.02296212
43	0x3dbf75bc	0.09348628
44	0x3d9a4b09	0.07533843
45	0x3dc5fe3d	0.09667633
46	0x3b6a365c	0.0035737967
47	0xbdaca450	-0.084297776
48	0x3e172e32	0.14763716
49	0x3d96a616	0.07355897
50	0x3c671754	0.014104683
51	0x3d1fffea	0.039062418
52	0xbd03d7c8	-0.032188207
53	0x3df7436d	0.12073407
54	0xbd5025ac	-0.050817177
55	0x3de93531	0.113870986
56	0xbd3836c5	-0.044974107
57	0x3df1f516	0.118143246
58	0xbdabaf09	-0.08382995
59	0x3deb6aee	0.114950046
60	0xbc4ea549	-0.012612649
61	0x3e957183	0.29188165
62	0x3e2e8d4b	0.17046086
63	0xbdabffb1	-0.08398379
64	0xbd603026	-0.054733418
65	0xbd3c2405	-0.04593279
66	0xbca95482	-0.02067018
67	0x3d1107e5	0.03540792
68	0xbd9dfac6	-0.07713847
69	0xbdaf1245	-0.085484065
70	0x3df7eea6	0.121060655
71	0xbcae791c	-0.021297984
72	0x3ebb2fb1	0.36559823
73	0xbd8fa4c4	-0.070138484
74	0x3d9bfed0	0.07616961
75	0xbd5995f6	-0.05312153
76	0x3d84ad23	0.06478336
77	0xbd976a46	-0.07393317
78	0xbcd6bb66	-0.026212405
79	0xbde81d68	-0.11333734
80	0xbd6003a8	-0.054690987
81	0x3d0f2f47	0.034957197
82	0xbd73c6f1	-0.059515897
83	0x3cf69764	0.030101486
84	0xbe1c5411	-0.15266444
85	0x3e5babb8	0.21452224
86	0xbd0dc314	-0.03460987
87	0xbd805546	-0.062662646
88	0x3ce63f1f	0.02810627
89	0x3e2e7182	0.17035487
90	0x3e44dc9d	0.19224782
91	0xbd740815	-0.05957802
92	0x3d436496	0.047703348
93	0xbd8beb55	-0.068319954
94	0xbcaa1b29	-0.020764904
95	0xbe023a2d	-0.12717505
96	0x3e469caa	0.193957
97	0xbda060a2	-0.07830931
98	0xbcd9ffae	-0.026611175
99	0xbd5e4a31	-0.054269973
100	0xbdcb4d05	-0.099268
101	0x3c25183f	0.0100765815
102	0xbd100690	-0.03516251
103	0xbb1e7599	-0.002417898
104	0xbe392ea1	-0.18084194
105	0xbb05e3ac	-0.0020429892
106	0xbd7044b7	-0.05865928
107	0x3dbb15f3	0.09135046
108	0xbcbca513	-0.023027932
109	0xbc8b780a	-0.017025013
110	0x3b375d02	0.002797902
111	0x3ea2a83a	0.31768972
112	0x3de8586a	0.11344989
113	0x3d137cd4	0.036007717
114	0xbbb74a42	-0.005593569
115	0x3d8668f9	0.06562991
116	0xbd723415	-0.0591317
117	0xbd47708b	-0.048691314
118	0xbce4fc91	-0.027952464
119	0xbdafc92b	-0.085832916

fc2.weight f4 [60, 120]
0	0xbea01321	-0.31264594
1	0x3e43a6f9	0.19106664
2	0xbea3297a	-0.31867582
3	0xbceaeb92	-0.028676782
4	0x3cfa4dbf	0.03055465
5	0x3d2d591d	0.042321313
6	0xbd65e795	-0.056129057
7	0xbe84411d	-0.25830927
8	0xbca0961a	-0.019602824
9	0x3e82e6aa	0.25566608
10	0xbe95adfc	-0.29234302
11	0xbdd4be2c	-0.10387835
12	0x3d8fc3aa	0.07019742
13	0xbc98c474	-0.018648364
14	0xbd9654d8	-0.073404014
15	0x3c5f6f1b	0.013637329
16	0xbdefea7b	-0.117146455
17	0x3e6ed960	0.2332511
18	0x3de8777a	0.11350913
19	0x3c10b739	0.008832746
20	0x3d925f3e	0.07147072
21	0xbcf75088	-0.030189767
22	0xbd901f43	-0.07037213
23	0xbf111f22	-0.5668813
24	0x3ded074a	0.11573656
25	0x3d70bc5a	0.058773376
26	0x3d6a3779	0.05718181
27	0x3da477d9	0.080306716
28	0x3dbe80d1	0.093019135
29	0x3db3b68e	0.08775054
30	0x3c2a1ef5	0.010383357
31	0x3ea22518	0.31668925
32	0x3e17dd98	0.14830625
33	0x3e5d5578	0.21614635
34	0xbdcb09b0	-0.09913957
35	0xbd729100	-0.059220314
36	0x3d1736dc	0.036917552
37	0x3df31c52	0.11870636
38	0xbe081818	-0.13290441
39	0x3e14600a	0.14489761
40	0x3e5460e3	0.20740084
41	0xbdc5c4fe	-0.09656714
42	0x3d6da81b	0.058021646
43	0x3dab367c	0.083600014
44	0xbd926cf3	-0.07149687
45	0xbd2a5b06	-0.041590713
46	0xbe09bb25	-0.13450296
47	0x3dd51c2f	0.10405766
48	0xbe027d78	-0.12743175
49	0xbe16d32f	-0.14728998
50	0x3d4dad74	0.050214246
51	0x3d8a0e9b	0.06741067
52	0xbe202bb8	-0.15641677
53	0x3e05e6f6	0.13076386
54	0xbcf5bb12	-0.029996429
55	0x3d9aca1f	0.07558083
56	0x3dc50d00	0.0962162
57	0xbc8e96c7	-0.01740588
58	0xbd91f08f	-0.07125961
59	0x3da36f4a	0.07980211
60	0xbe1d1970	-0.15341735
61	0x3e56a932	0.2096298
62	0x3e6269e4	0.22110707
63	0xbd5dd831	-0.054161254
64	0x3d84d22d	0.064854
65	0xbd93a563	-0.072092794
66	0xbd474cad	-0.048657108
67	0x3c093eee	0.00837682
68	0xbc551038	-0.013004355
69	0xbc7f090b	-0.015566121
70	0x3dca1d6e	0.098688945
71	0x3e3104b1	0.17286946
72	0xbd5f4af4	-0.05451484
73	0x3daa6681	0.08320332
74	0xbe36e319	-0.17860068
75	0x3daac45d	0.083382346
76	0xbe1f80fb	-0.15576546
77	0x3d052983	0.03251029
78	0x3e71c131	0.23608853
79	0x3dae4871	0.08509911
80	0x3d742f25	0.059615273
81	0xbe1fd34e	-0.1560795
82	0xbcf958d7	-0.03043787
83	0x3e2f1591	0.1709807
84	0x3e927c3d	0.2861041
85	0x3e4418fd	0.19150157
86	0xbd209f14	-0.03921421
87	0xbc8e789c	-0.017391495
88	0x3da6bd6f	0.081416
89	0x3d6fa6a6	0.058508538
90	0x3c9d7156	0.019219082
91	0x3d6f1881	0.058372978
92	0x3e036b45	0.12833889
93	0xbc8a3522	-0.016871039
94	0xbb52508f	-0.0032091474
95	0x3c7795f1	0.015111432
96	0xbca3cad9	-0.019994186
97	0x3de670ba	0.1125197
98	0x3e2d0210	0.16895318
99	0xbb3c7af7	-0.0028759816
100	0x3ca642c2	0.020295504
101	0xbd8a825a	-0.06763144
102	0x3de00540	0.10938501
103	0xbd04c645	-0.032415647
104	0xbe0f9e1c	-0.14025158
105	0xbe6f34ec	-0.23360032
106	0xbc8fbe69	-0.01754685
107	0x3d819e64	0.06329039
108	0x3d998c32	0.07497443
109	0xbeae240c	-0.34011877
110	0xbef45a13	-0.4772497
111	0xbe304f96	-0.1721786
112	0xbcf39ec5	-0.029738793
113	0x3e401bdd	0.18760629
114	0x3c9da0ac	0.019241653
115	0x3e800bd3	0.2500902
116	0xbdb671b1	-0.08908404
117	0xbd8c411d	-0.06848357
118	0xbcd52f11	-0.02602342
119	0xbdd6cad7	-0.104879074
120	0x3d4458fe	0.047936432
121	0xbb89840f	-0.004196651
122	0xbcb81314	-0.022470035
123	0xbd248eaf	-0.040175136
124	0x3ce3d270	0.027810305
125	0x3bc379a1	0.005965427
126	0x3d2e8a7f	0.04261255
127	0xbd34bf79	-0.044127915
128	0x3dd0a322	0.10187365
129	0x3e20b6e4	0.15694767
130	0x3da12551	0.07868446
131	0x3d9fc09b	0.078004085
132	0xbd7b9c94	-0.06142862
133	0x3e327997	0.17429195
134	0x3db06d99	0.08614654
135	0x3bc05fa4	0.0058707763
136	0xbdedac87	-0.116051726
137	0xbcd6e0f1	-0.026230307
138	0x3d9235ff	0.07139205
139	0x3c06fb36	0.008238604
140	0x3e340fd4	0.17584163
141	0xbcccaacb	-0.024983784
142	0xbd4c9c57	-0.049953785
143	0x3e37d815	0.17953523
144	0xbe843677	-0.25822803
145	0x3edbf0ef	0.42957255
146	0x3c157bb0	0.009123728
147	0x3da56598	0.08076018
148	0x3d83a49f	0.06427883
149	0x3e8a2508	0.26981378
150	0x3d6389ee	0.055551462
151	0x3e0b157f	0.13582419
152	0x3e034359	0.1281866
153	0xbe0db4fe	-0.13838574
154	0xbe2a2ab6	-0.16617855
155	0xbc82ce57	-0.015967531
156	0x3cfab4d5	0.030603806
157	0xbda6a464	-0.08136824
158	0xbd9aa93a	-0.07551809
159	0xbcced4ee	-0.025248017
160	0xbd7157d8	-0.058921665
161	0x3d5028d4	0.050820187
162	0x3d7ef4bc	0.062245116
163	0xbd11717c	-0.035508618
164	0x3dcec692	0.10096468
165	0x3e1f8118	0.15576589
166	0x3e7a4540	0.2444048
167	0xbdace89d	-0.08442805
168	0x3d346b65	0.044047732
169	0xbd903e67	-0.07043152
170	0x3c8d22e3	0.01722855
171	0x3cc8cfa4	0.024513073
172	0x3d5382b2	0.051638313
173	0xbd1988ec	-0.037484095
174	0xbd6fd19c	-0.05854951
175	0x3deb706f	0.114960544
176	0x3e50b5c1	0.20381834
177	0xbd01a50c	-0.03165154
178	0x3c6d2e17	0.014476321
179	0xbcc4da51	-0.024029883
180	0x3e168711	0.14699961
181	0xbd71bcd3	-0.059017967
182	0x3d983775	0.074324526
183	0x3e88a2ee	0.26686805
184	0xbba2b71a	-0.004965675
185	0xbd0081ad	-0.03137367
186	0xbcf3a7aa	-0.029743034
187	0xbdf8ddc9	-0.12151677
188	0x3c9477b8	0.018123493
189	0xbd20f71f	-0.039298173
190	0x3c921c92	0.017835889
191	0x3d9c42a4	0.07629898
192	0xbc83dbc9	-0.016096013
193	0xbccb8df8	-0.02484797
194	0x3e57008b	0.20996301
195	0x3e390234	0.18067247
196	0xbe0cf866	-0.13766631
197	0x3e8d380d	0.27581826
198	0xbdbc881c	-0.09205648
199	0x3d481a0e	0.048852973
200	0xbda7e352	-0.08197655
201	0xbde3224b	-0.11090525
202	0x3d0b60a6	0.034027718
203	0xbd41c5eb	-0.04730789
204	0x3eefbb94	0.46822798
205	0xbe4ee788	-0.2020551
206	0x3e1e181e	0.15438887
207	0x3dd2dfa4	0.10296562
208	0xbcfa904c	-0.030586384
209	0xbd05fc81	-0.03271151
210	0x3c740a8f	0.0148950955
211	0xbd06728e	-0.03282409
212	0xbcd9d9ab	-0.02659305
213	0x3dc5552f	0.09635388
214	0xbd7b42dd	-0.061343063
215	0x3c399a49	0.011328288
216	0xbdf24632	-0.11829795
217	0xbb8292a7	-0.0039847675
218	0x3cee3520	0.029078066
219	0x3e37edde	0.17961833
220	0x3d22c82d	0.039741684
221	0x3d8dc99b	0.06923219
222	0x3dfce222	0.12347819
223	0xbddc1355	-0.10745875
224	0xbda43848	-0.08018547
225	0x3e3a985e	0.18222186
226	0xbd962ba0	-0.073325396
227	0xbd9cd372	-0.076575175
228	0x3db0f3ed	0.08640275
229	0x3db9263f	0.09040498
230	0xbed4de21	-0.4157572
231	0xbe431f62	-0.1905494
232	0xbdc63b66	-0.09679298
233	0xbdeac6f2	-0.11463727
234	0x3ea0b702	0.31389624
235	0x3d9a2e84	0.075284034
236	0xbd3c01a0	-0.045899987
237	0x3cc2566f	0.023722855
238	0xbd1b5631	-0.037923995
239	0x3c97d284	0.018532999
240	0x3e208542	0.15675834
241	0x3d45dcb0	0.048306167
242	0x3dc1fcfc	0.09472081
243	0x3d926c36	0.07149546
244	0xbd068fcf	-0.03285199
245	0x3afa9a28	0.0019119428
246	0xbd960ec2	-0.073270336
247	0x3c542eab	0.01295058
248	0x3e0a79cc	0.13523024
249	0xbe44fd9d	-0.19237371
250	0x3e405ac9	0.18784632
251	0x3e3014cd	0.17195435
252	0xbd96ff7e	-0.0737295
253	0x3bf88f24	0.007585423
254	0xbd995e7c	-0.074887246
255	0xbde4ea88	-0.11177546

fc2.bias f4 [60]
0	0xbdbaa9ba	-0.09114404
1	0xbd1bfcc7	-0.038082864
2	0x3de9b500	0.11411476
3	0x3d0c9385	0.034320373
4	0x3df1b7aa	0.11802609
5	0xba332344	-0.0006833563
6	0x3e32da54	0.17466098
7	0x3d9e51a6	0.07730417
8	0xbcee28c3	-0.029072171
9	0xbd572f5f	-0.05253541
10	0x3d862824	0.06550625
11	0xbdd6fd16	-0.10497491
12	0x3df16739	0.11787266
13	0xbcb40ec6	-0.0219797
14	0xbdee4152	-0.116335526
15	0x3d843d0e	0.06456958
16	0xbc80bf89	-0.015716331
17	0x3c84fcdd	0.016233856
18	0x3d9ea06c	0.07745442
19	0x3df3a90b	0.11897477
20	0x3e3460c0	0.17615032
21	0x3dae3036	0.08505289
22	0x3c8f1e39	0.017470466
23	0x3d906d6f	0.07052123
24	0x3c3dbebb	0.011581118
25	0xbd31b1b5	-0.043382365
26	0xbb481b96	-0.003053402
27	0x3da82bef	0.08211505
28	0x3d808d6a	0.062769726
29	0x3e21423d	0.15747924
30	0xbdbd9f8c	-0.09258947
31	0xbb515ad2	-0.0031945002
32	0xbe093a48	-0.13401139
33	0xbd39d10c	-0.04536538
34	0xbb97513a	-0.0046178373
35	0x3d5fc98c	0.05463557
36	0x3dc026ac	0.09382376
37	0x3d7d37bc	0.06182073
38	0x3e15a250	0.14612699
39	0xbcaae8cc	-0.02086296
40	0xbd930f99	-0.071807094
41	0xbd088f34	-0.033339694
42	0x3e19bfa7	0.15014516
43	0xbd394160	-0.045228362
44	0xbdb0ba5e	-0.08629297
45	0x3d4f6fd2	0.05064375
46	0x3e1adb11	0.1512263
47	0xbdae0a1a	-0.084980205
48	0x3dd8ba06	0.10582356
49	0xbd6534df	-0.055958625
50	0xbdbba9b6	-0.09163229
51	0xbdc03368	-0.09384805
52	0xbdcd0672	-0.10010995
53	0xbde3969f	-0.11112713
54	0xbc9b8af1	-0.01898715
55	0xbcb7d22f	-0.02243909
56	0xbdce596c	-0.100756496
57	0x3c6facd0	0.014628604
58	0x3db48cc3	0.08815911
59	0xbe0b73ab	-0.13618343

out.weight f4 [10, 60]
0	0xbf35919f	-0.70925325
1	0x3dd2df5d	0.102965094
2	0xbf0e414e	-0.555684
3	0xbe2f21b6	-0.17102703
4	0xbe121b9d	-0.14268346
5	0x3e7c9ede	0.24669978
6	0x3e6c7672	0.23092058
7	0xbec01026	-0.3751232
8	0xbdc69650	-0.096966386
9	0xbe4a4a64	-0.1975494
10	0x3cdb773a	0.02679025
11	0x3d64455f	0.05573022
12	0x3da42ea6	0.0801671
13	0x3e8aedb0	0.27134466
14	0x3a9c2b9a	0.001191485
15	0x3f11824a	0.5683943
16	0x3d6184ac	0.055058166
17	0x3ee6c769	0.45074013
18	0x3d64a053	0.05581696
19	0x3e681f81	0.22668268
20	0xbbc5504f	-0.0060215364
21	0xbd7d9cdf	-0.061917182
22	0xbe0ef711	-0.13961436
23	0xbf8e51cc	-1.1118712
24	0x3de0c3cc	0.10974845
25	0xbdf1eda2	-0.11812903
26	0xbd9e3976	-0.077258036
27	0xbd9dd82c	-0.07707247
28	0x3dc091e5	0.09402827
29	0x3e15402a	0.14575258
30	0xbd8474ce	-0.06467591
31	0xbe4979a2	-0.19675305
32	0x3e242ba7	0.16032277
33	0xbf267b02	-0.65031445
34	0xbf0fd0b6	-0.5617784
35	0x3c69dcbc	0.014273819
36	0xbe9e1e20	-0.3088236
37	0x3e12507d	0.14288516
38	0xba995587	-0.0011698463
39	0x3e2f2697	0.17104565
40	0xbc53adff	-0.012919902
41	0xbe570644	-0.20998484
42	0xbeac9fc4	-0.33715641
43	0xbdad43e6	-0.08460216
44	0x3d8baa90	0.068196416
45	0xbcc88534	-0.024477579
46	0x3e12e44a	0.14344898
47	0xbe300506	-0.17189416
48	0x3e03f3ef	0.12886022
49	0x3d933eb7	0.07189696
50	0xbe0d7da4	-0.1381746
51	0xbdbdcf09	-0.092680044
52	0x3d9a52c7	0.0753532
53	0x3db9637a	0.09052177
54	0xbef139f1	-0.47114518
55	0x3d21ee23	0.039533745
56	0x3eb63dc1	0.3559399
57	0x3ec98c2f	0.39364764
58	0x3e2a060a	0.16603866
59	0x3e29cfb5	0.1658314
60	0xbdce04c6	-0.10059504
61	0x3dfe6cc5	0.1242309
62	0x3f01b0f1	0.50660616
63	0x3e34363f	0.17598818
64	0x3dc64304	0.09680751
65	0x3e54a80b	0.20767228
66	0xbcff8696	-0.031192105
67	0xbeb4b80b	-0.35296664
68	0xbd1974f2	-0.037465043
69	0x3e838f9c	0.25695503
70	0xbdbfac2f	-0.09359013
71	0x3d3c492f	0.04596823
72	0xbd2ec71e	-0.04267036
73	0xbe4f1c66	-0.20225677
74	0xbd50e147	-0.05099609
75	0x3dac9d28	0.08428413
76	0x3dc76716	0.09736459
77	0x3eb24f60	0.34826183
78	0x3e5a55bb	0.21321766
79	0xbdc9c7bb	-0.09852549
80	0x3d9fc2cd	0.07800827
81	0x3e1fd0e6	0.15607032
82	0xbd328e64	-0.043592826
83	0x3e99c7bd	0.300352
84	0xbf05e0bd	-0.5229605
85	0x3ec85e6e	0.39134544
86	0xbda62234	-0.081119925
87	0xbf2c2172	-0.67238533
88	0xbeb8bb93	-0.36080608
89	0xbd8b3adc	-0.06798336
90	0x3bfc56cd	0.007700777
91	0x3e25c72f	0.16189264
92	0x3e2c87fb	0.16848747
93	0x3daecde8	0.08535367
94	0xbe99d4c0	-0.30045128
95	0x3e6bd2b8	0.23029602
96	0xbef84eef	-0.48497722
97	0xbf125c03	-0.5717165
98	0x3d0984aa	0.033573784
99	0xbee6d288	-0.45082498
100	0x3d51ad36	0.051190577
101	0x3e619435	0.22029193
102	0x3d8f2652	0.06989731
103	0xbda4a275	-0.08038799
104	0x3d7b5d96	0.061368547
105	0x3e203175	0.15643866
106	0xbe90c40f	-0.2827458
107	0xbe1e8cdd	-0.15483423
108	0x3e29a455	0.16566594
109	0xbcc2ca3e	-0.023778077
110	0xbdc34e27	-0.09536391
111	0x3d6ebc76	0.0582852
112	0x3de7c806	0.11317448
113	0x3d2cb4a7	0.04216447
114	0x3de5cf8c	0.11221227
115	0x3e0a98a7	0.13534795
116	0xbea4bcb4	-0.3217522
117	0xbf5341c7	-0.82522243
118	0x3dff4882	0.12465002
119	0xbf4da37e	-0.80327594
120	0x3d30dfa9	0.04318205
121	0xbe7151f0	-0.23566413
122	0x3e7001b5	0.23438151
123	0x3d566abd	0.052347887
124	0x3dbe4712	0.09290899
125	0x3e2d63a5	0.16932543
126	0x3e214aab	0.1575114
127	0xbc7df411	-0.0155000845
128	0x3c940597	0.018069072
129	0xbe7e25e8	-0.24819148
130	0xbe1c2383	-0.15247922
131	0xbddd16aa	-0.107953385
132	0x3e16dc5c	0.14732498
133	0x3f1d6755	0.614858
134	0x3a03117d	0.00049998594
135	0x3e6e0194	0.2324279
136	0xbdcde7e5	-0.10053996
137	0xbf2e014c	-0.6797073
138	0xbc9d30bd	-0.01918828
139	0xbeb0dc86	-0.34543246
140	0x3dfdf5b7	0.12400382
141	0x3d8963f4	0.06708518
142	0x3dd03fe7	0.101684384
143	0x3f07a120	0.5298023
144	0x3d793303	0.060839664
145	0xbded9173	-0.11600008
146	0xbe0f5802	-0.13998416
147	0x3e128380	0.14307976
148	0x3e3a7e48	0.18212235
149	0x3db12d77	0.0865125
150	0x3c972f6c	0.01845523
151	0x3decfacc	0.11571273
152	0xbf5999d2	-0.85000336
153	0x3c4310c4	0.011905853
154	0xbf014380	-0.5049362
155	0x3e592e1f	0.21209
156	0xbd591ac5	-0.053004045
157	0x3d6088ac	0.05481784
158	0x3e3e8a80	0.18607521
159	0xbc9ecc8c	-0.019384645
160	0xbdc1f74a	-0.09470995
161	0xbf0ffc62	-0.5624448
162	0xbca8c216	-0.02060036
163	0xbdab2916	-0.08357446
164	0x37308e81	1.0523597e-05
165	0x3ee8810b	0.45410952
166	0x3e3e9e8c	0.18615168
167	0xb9895746	-0.000261957
168	0x3dd11436	0.10208933
169	0xbdc964c7	-0.09833675
170	0xbeb37319	-0.3504875
171	0xbd3fc525	-0.04681887
172	0x3c862628	0.016375616
173	0xbe0572a8	-0.13032019
174	0xbca72771	-0.02040455
175	0x3ce25cdd	0.027632171
176	0xbf308db0	-0.689662
177	0xbebfa142	-0.37427717
178	0xbe843ef3	-0.25829276
179	0x3c9b6f83	0.018974071
180	0x3df1a2a3	0.117985986
181	0x3e221054	0.15826541
182	0xbf91ddac	-1.1395774
183	0xbee62394	-0.4494902
184	0xbe169b19	-0.14707603
185	0xbeabbb7a	-0.3354147
186	0x3e1a3f56	0.15063223
187	0xbd23d84a	-0.04000119
188	0xbb81e206	-0.0039637117
189	0x3dae612c	0.08514628
190	0xbe888345	-0.2666265
191	0xbc9c6f0f	-0.019095926
192	0x3ca63deb	0.020293197
193	0xbc363f80	-0.011123538
194	0xbd1b9349	-0.03798226
195	0xbfbc39e9	-1.4705173
196	0x3d9a4798	0.07533187
197	0xbe140a6f	-0.14457105
198	0x3d7ed1d6	0.062211834
199	0xbf295af6	-0.6615442
200	0x3d705cfa	0.05868242
201	0xbe701a86	-0.23447618
202	0x3e029312	0.12751415
203	0xbf3d57a4	-0.73961854
204	0xbe1fd68e	-0.1560919
205	0x3eba886e	0.36432213
206	0x3d18e50f	0.037327822
207	0x3df243cc	0.118293375
208	0x3c887ac1	0.016660096
209	0x3e27aa7e	0.16373631
210	0xbd4232bd	-0.04741167
211	0x3e1a077e	0.1504192
212	0xbc97113e	-0.018440839
213	0xbdea55a0	-0.11442113
214	0x3e544a72	0.20731524
215	0xbbf7a774	-0.0075578038
216	0x3e2984d9	0.16554584
217	0x3dbe9df5	0.09307472
218	0x3dc7508d	0.09732161
219	0xbe21df52	-0.15807846
220	0xbdb4440d	-0.08802042
221	0x3d170f01	0.036879543
222	0xbdbdaf1c	-0.09261915
223	0xbc598da9	-0.013278403
224	0x3da76b25	0.08174733
225	0xbd944542	-0.072397724
226	0xbd6ff6d6	-0.05858501
227	0x3e26857d	0.16261859
228	0x3ba013a4	0.004885154
229	0xbd522db6	-0.051313125
230	0x3d7514e8	0.05983439
231	0xbc6ca3c5	-0.014443343
232	0x3d9f4a84	0.077778846
233	0x3c7f3323	0.015576157
234	0xbe990c9f	-0.29892442
235	0x3e5e3f87	0.21703921
236	0xbefe7f7c	-0.49706638
237	0x3e74d686	0.23909959
238	0xbc782c42	-0.015147271
239	0xbce0c123	-0.027435845
240	0xbd7befd9	-0.061508033
241	0x3dc31651	0.09525741
242	0xbe1ce955	-0.15323384
243	0x3d994904	0.0748463
244	0xbcbda014	-0.02314762
245	0x3e0bc4a8	0.13649237
246	0xbee47383	-0.44619378
247	0x3cea32ac	0.028588615
248	0x3cd62c29	0.026144104
249	0x3e0cbfbc	0.13745016
250	0x3def1f58	0.116759
251	0xbdda6ea6	-0.10665636
252	0xbd6e2063	-0.058136355
253	0xbe9ea0e6	-0.3098213
254	0xbdbb4837	-0.09144633
255	0xbe0a6916	-0.1351665

out.bias f4 [10]
0	0xbded67a3	-0.11592033
1	0x3da5c829	0.08094818
2	0x3dd6fc64	0.104973584
3	0x3bae7e79	0.0053251353
4	0xbcb650d1	-0.022255333
5	0xbddba91c	-0.107256144
6	0x3c3e38f7	0.011610261
7	0x3d82164b	0.06351908
8	0xbe55cde8	-0.20879328
9	0xbe047363	-0.12934642
