model/saved_models/model-2.pth (torch_old, 133508 bytes, 10 tensors)

conv1.weight f4 [6, 1, 5, 5]
-0.19488752 0.047394447 0.07236322 0.033378504 0.06302452 -0.30000257 0.06506077 0.21990293
-0.19415447 0.20706894 -0.2937647 -0.042601548 0.22203739 -0.15548527 0.22976205 -0.6152483
-0.100591786 0.46637407 0.12464353 0.12266288 -0.411154 -0.5622446 0.40069288 0.324174
0.24239928 0.3369418 0.45209122 0.46775785 0.040874273 0.2058936 -0.2678571 -0.22921371
-0.0021073227 0.24841449 -0.09015121 -0.062029343 -0.07590592 0.1492732 0.096035495 -0.22175944
0.21884355 0.14496486 -0.12535448 0.27117747 -0.04661306 0.00405046 -0.027224699 0.33509415
0.1845778 0.01548555 0.050249297 0.16074178 0.51692724 -0.24305995 -0.72214335 0.2646581
0.3290027 0.44226182 0.4472492 -0.024880795 0.012690055 0.33882466 0.28781277 0.09233291
0.28717545 0.07578443 -0.2540438 -0.3578401 0.047043554 -0.0045330366 -0.17401938 -0.20739347
-0.5131886 -0.608456 -0.5279208 0.4167907 0.7231785 0.07912989 0.0068361848 0.5042325
0.21382135 -0.021997645 0.18520822 -0.59300065 0.15108266 -0.094658434 -0.018917888 0.13471247
-0.65565735 -0.23530874 0.108320795 -0.11695281 0.36240214 -0.6068991 -0.034519996 0.28424644
0.26127732 0.2027771 -0.5786552 0.008746283 -0.1958861 0.089181885 0.27568954 0.016044233
-0.21137923 0.26339203 -0.27909997 0.2780938 0.17628865 -0.23392472 0.2922018 -0.78867656
0.4966203 0.294176 -0.20005992 -0.11858558 -0.6156343 0.45195708 0.39478162 -0.1935012
-0.16539778 -0.71939427 0.675389 0.11704759 -0.082814015 -0.49323952 -0.5050379 -0.61939496
0.8405188 0.58298135 0.07261145 0.23896602 0.059598174 0.481185 0.11905524 0.15111114
-0.17381902 0.055313043 0.13354264 0.18896997 0.09894238 0.06334751 0.18605247 0.22719158
0.24417013 -0.13045591 0.059805196 0.060682777 0.07567585 -0.023255326
00000000: 9890 47be ae20 423d 2b33 943d e6b7 083d
00000010: 0013 813d f099 99be 953e 853d 3c2e 613e
00000020: 6ed0 46be e109 543e 5468 96be f67e 2ebd
00000030: c55d 633e 8837 1fbe be46 6b3e ea80 1dbf
00000040: 1103 cebd 95c8 ee3e 1b45 ff3d ad36 fb3d
00000050: c782 d2be 43ef 0fbf 9e27 cd3e 22fa a53e
00000060: 8437 783e a383 ac3e 8078 e73e f57d ef3e
00000070: c86b 273d c6d5 523e 9124 89be 00b7 6abe
00000080: 021b 0abb 5e60 7e3e 33a1 b8bd 7b12 7ebd
00000090: 9074 9bbd 13db 183e 42ae c43d e814 63be
000000a0: 8618 603e ab71 143e ed5c 00be c6d7 8a3e
000000b0: 56ed 3ebd b9b9 843b 5506 dfbc 7691 ab3e
000000c0: f601 3d3e 1bb7 7d3c 35d2 4d3d 7e99 243e
000000d0: 5855 043f b5e4 78be 63de 38bf 4481 873e
000000e0: 0b73 a83e 2470 e23e d9fd e43e cfd2 cbbc
000000f0: f3e9 4f3c 6d7a ad3e 325c 933e 0919 bd3d
00000100: a908 933e de34 9b3d 0712 82be d136 b7be
00000110: beb0 403d de89 94bb 2332 32be f45e 54be
00000120: 5460 03bf c6c3 1bbf d125 07bf 9765 d53e
00000130: 3a22 393f da0e a23d 1302 e03b 6215 013f
00000140: fcf3 5a3e 6834 b4bc 39a7 3d3e e4ce 17bf
00000150: 6ab5 1a3e 48dc c1bd b0f9 9abc 11f2 093e
00000160: 29d9 27bf c6f4 70be 4bd7 dd3d f484 efbd
00000170: c68c b93e bd5d 1bbf d764 0dbd c088 913e
00000180: 24c6 853e cda4 4f3e bf22 14bf 924c 0f3c
00000190: 5e96 48be fea4 b63d 2e27 8d3e 326f 833c
000001a0: cc73 58be 52db 863e 31e6 8ebe 5062 8e3e
000001b0: 0385 343e f689 6fbe 799b 953e b5e6 49bf
000001c0: 0445 fe3e 3d9e 963e 82dc 4cbe ffdc f2bd
000001d0: 369a 1dbf eb66 e73e d120 ca3e 2e25 46be
000001e0: 095e 29be 392a 38bf 4be6 2c3f a6b6 ef3d
000001f0: 659a a9bd e489 fcbe 2a4a 01bf ab90 1ebf
00000200: 3d2c 573f 443e 153f 50b5 943d 82b3 743e
00000210: 371d 743d e15d f63e 3cd3 f33d e1bc 1a3e
00000220: 9dfd 31be ee8f 623d 67bf 083e 5881 413e
00000230: 4da2 ca3d 57bc 813d 8a84 3e3e e9a4 683e
00000240: bc07 7a3e 3c96 05be 4bf6 743d 818e 783d
00000250: f1fb 9a3d f481 bebc

conv1.bias f4 [6]
0.029730452 -0.07990884 0.30023652 0.0017057256 -0.007561879 -0.010147228
00000000: 478d f33c 3fa7 a3bd 9ab8 993e a792 df3a
00000010: a4c9 f7bb 8f40 26bc

conv2.weight f4 [12, 6, 5, 5]
0.35990223 -0.06323253 -0.30615836 -0.6250226 -0.15032129 0.03419174 0.12666616 0.24720223
-0.70174444 0.2517253 -0.0752843 -0.11154109 -0.4026388 -0.1077317 0.65751415 -0.005889948
-0.3788614 -0.29807556 -0.021173807 0.20810385 -0.088835284 -0.74077946 -0.5348473 -0.43695128
0.027033253 0.06538109 0.12947218 0.040314164 0.1347619 0.07164218 -0.2225368 -0.115248606
-0.053597853 -0.06805175 0.026765916 0.06569414 0.047819402 -0.061668545 -0.14524522 0.13900645
0.09485977 0.047252752 -0.021155199 -0.02727332 0.029103829 0.36271882 0.18803766 -0.05719907
-0.11280785 0.07332496 0.12771414 -0.012907621 -0.38048497 0.07557484 -0.36502495 0.39492044
-0.07156015 -0.4069315 -0.19966167 -0.20094855 0.36258724 0.012080527 0.11423259 -0.054310698
-0.12097756 0.1364511 0.2144553 0.08868278 -0.4355529 0.019683829 0.019011544 0.41132936
0.01950276 0.024852535 -0.17813504 0.5537937 0.41680616 0.16480477 -0.040349435 -0.19294184
0.25246105 -0.12438182 -0.0347284 -0.2869516 -0.0662164 0.1879502 -0.0511377 0.159225
-0.16060047 0.15447085 -0.20128873 -0.0016554559 0.030206755 -0.019437194 0.15337339 -0.14413753
0.15905215 -0.0927237 -0.15350263 -0.025640987 0.35680878 0.8052656 0.74222153 -0.19632292
0.11505633 -0.0017040535 0.396705 0.04920234 -0.062440574 0.32615587 -0.2033029 0.21541612
-0.2850094 0.012940465 0.52958226 -0.31694555 -0.4535579 0.30369902 -0.14781028 0.14506122
-0.43706223 0.015963443 -0.28968766 -0.12853254 0.42607102 0.078932434 -0.12798259 0.06656384
0.18305616 0.13808993 -0.05551159 -0.04850102 -0.24773283 0.07461301 -0.0051108473 0.034269385
0.15978594 -0.2650457 -0.06928699 -0.15963654 -0.08289681 0.26142383 -0.21197863 -0.037161104
-0.06859521 0.12533246 0.07312243 0.0077999965 0.048313707 0.16090122 -0.4090705 -0.98282486
-0.71383643 -0.798976 -0.07045226 -0.017194808 -0.8179472 -0.23973079 -0.6163435 -0.20423098
0.2602428 0.038052447 -0.008977027 -0.33805543 -0.47432408 0.18763717 0.15567505 0.3148742
-0.02565144 -0.40516022 -0.5005542 -0.52373517 0.56395787 0.19571061 0.012665827 0.13316059
0.13842434 0.15835333 0.16567098 0.1017632 0.06074128 -0.015306655 0.061503004 -0.0028283447
0.19656666 0.005790312 0.020356541 0.023675403 0.13874394 0.24942209 -0.10004808 -0.053872917
0.011747474 0.051728275 0.0900023 -0.21642902 -0.19476466 -0.19141807 -0.13479424 -0.040235132
-0.120402 0.32857263 0.22935088 -0.14925876 -0.13874947 0.09106978 -0.0116914045 -0.16866572
-0.10822106 -0.14660822 0.11694056 -0.15623204 0.17611337 -0.02085018 0.20896421 0.24647605
0.26937485 0.29631957 0.05247867 0.324092 0.13720647 0.2927407 0.17244759 0.14291555
0.29798517 -0.07281556 0.14337142 0.17117767 -0.006442285 -0.037630055 -0.053600043 -0.16047251
-0.18988581 -0.20987144 -0.21345162 -0.11381134 -0.0637049 -0.05471831 0.035281662 -0.07858834
-0.06860249 0.005964044 0.09625023 0.032379147 0.10437335 -0.3058069 0.09501151 0.037005525
-0.008628431 0.22149487 -0.5636107 -0.44300088 -0.54454637 -0.36236882 -0.25443593 -0.13552517
00000000: 1b45 b83e 0f80 81bd cac0 9cbe 7b01 20bf
00000010: d3ed 19be a30c 0c3d c6b4 013e 9522 7d3e
00000020: 86a5 33bf 23e2 803e a82e 9abd a86f e4bd
00000030: ac26 cebe 70a2 dcbd d952 283f 7700 c1bb
00000040: 1ffa c1be 5c9d 98be b174 adbc 2d19 553e
00000050: 46ef b5bd b9a3 3dbf c1eb 08bf 14b8 dfbe
00000060: d774 dd3c 85e6 853d 5b94 043e 7720 253d
00000070: 06ff 093e 23b9 923d b0e0 63be 7607 ecbd
00000080: 6c89 5bbd b75e 8bbd 3244 db3c a68a 863d
00000090: 47de 433d 2898 7cbd 2abb 14be b557 0e3e
000000a0: d745 c23d 1a8c 413d ab4d adbc 4c6c dfbc
000000b0: 276b ee3c 48b6 b93e f28c 403e 9249 6abd
000000c0: cd07 e7bd 662b 963d 7fc7 023e 7d7a 53bc
000000d0: edce c2be fbc6 9a3d 8de4 babe 0333 ca3e
000000e0: 218e 92bd 5359 d0be 1c74 4cbe 75c5 4dbe
000000f0: 09a5 b93e 67ed 453c c7f2 e93d e574 5ebd
00000100: 15c3 f7bd d6b9 0b3e 2c9a 5b3e 519f b53d
00000110: ca00 dfbe fb3f a13c 19be 9b3c c399 d23e
00000120: 41c4 9f3c 8b97 cb3c 0869 36be 6dc5 0d3f
00000130: 9e67 d53e 95c2 283e 7345 25bd 8c92 45be
00000140: 9342 813e e5bb febd 5e3f 0ebd 52eb 92be
00000150: 779c 87bd 0476 403e c475 51bd e10b 233e
00000160: 7374 24be 9b2d 1e3e a21e 4ebe e2fb d8ba
00000170: 2874 f73c c03a 9fbc ea0d 1d3e ca98 13be
00000180: 91de 223e ece5 bdbd cb2f 1dbe 0c0d d2bc
00000190: a4af b63e e325 4e3f 3b02 3e3f e008 49be
000001a0: a7a2 eb3d 8c5a dfba eb1c cb3e 6588 493d
000001b0: b0c1 7fbd e7fd a63e a32e 50be 0b96 5c3e
000001c0: c1ec 91be 3e04 543c b492 073f b046 a2be
000001d0: be38 e8be 707e 9b3e 945b 17be ee8a 143e
000001e0: 9fc6 dfbe c4c5 823c f151 94be 099e 03be
000001f0: fb25 da3e 54a7 a13d de0d 03be 9f52 883d
00000200: 1373 3b3e 7267 0d3e 1f60 63bd 01a9 46bd
00000210: adad 7dbe b5ce 983d e578 a7bb 0e5e 0c3d
00000220: ed9e 233e 12b4 87be 56e6 8dbd c377 23be
00000230: cdc5 a9bd 58d9 853e ed10 59be 3e36 18bd
00000240: a57b 8cbd 2757 003e 36c1 953d 1d97 ff3b
00000250: 98e4 453d 4ac3 243e b071 d1be 699a 7bbf
00000260: fcbd 36bf b189 4cbf 4649 90bd 20dc 8cbc
00000270: fd64 51bf fd7b 75be b0c8 1dbf ed21 51be
00000280: 8b3e 853e e2dc 1b3d 6114 13bc 9a15 adbe
00000290: 9bda f2be f523 403e 4869 1f3e 3137 a13e
000002a0: f822 d2bc 2971 cfbe 5224 00bf 8213 06bf
000002b0: 8b5f 103f 5d68 483e 5484 4f3c 405b 083e
000002c0: 1cbf 0d3e 6027 223e a7a5 293e 3969 d03d
000002d0: d9cb 783d c4c8 7abc 93ea 7b3d c05b 39bb
000002e0: c548 493e a8bc bd3b c3c2 a63c ebf2 c13c
000002f0: e412 0e3e 8168 7f3e 02e6 ccbd d9a9 5cbd
00000300: 7a78 403c 07e1 533d 2053 b83d 929f 5dbe
00000310: 6370 47be 1903 44be 8007 0abe 98cd 24bd
00000320: 5395 f6bd ac3a a83e f5da 6a3e 4ad7 18be
00000330: 5714 0ebe cb82 ba3d 4e8d 3fbc b5b6 2cbe
00000340: 01a3 ddbd 7720 16be 887e ef3d 4bfb 1fbe
00000350: 1057 343e ffcd aabc b7fa 553e 3864 7c3e
00000360: 80eb 893e 33b7 973e e0f3 563d 63ef a53e
00000370: da7f 0c3e 1ce2 953e 1a96 303e 7458 123e
00000380: 8391 983e 5320 95bd f5cf 123e 3349 2f3e
00000390: ce19 d3bb f921 1abd b88b 5bbd e852 24be
000003a0: 6d71 42be 8ae8 56be 1093 5abe eb15 e9bd
000003b0: b777 82bd 4e20 60bd 8183 103d ecf2 a0bd
000003c0: 767f 8cbd 076e c33b d71e c53d ff9f 043d
000003d0: b2c1 d53d b992 9cbe 6595 c23d 1b93 173d
000003e0: 435e 0dbc 8dcf 623e ca48 10bf 03d1 e2be
000003f0: 6467 0bbf 6888 b9be 6d45 82be 1cc7 0abe

conv2.bias f4 [12]
0.23716862 0.029373378 0.24854544 -0.049368255 -0.10723297 -0.25961244 -0.2305103 -0.09171597
0.22417705 -0.26425242 0.39402932 -0.34275678
00000000: 55dc 723e 70a0 f03c b282 7e3e 5e36 4abd
00000010: f69c dbbd eceb 84be e40a 6cbe 95d5 bbbd
00000020: ab8e 653e 184c 87be 36be c93e d17d afbe

fc1.weight f4 [120, 192]
-0.028636787 0.055628832 0.019914892 -0.035385776 -0.05403308 -0.018386124 -0.056851834 0.045583855
-0.020119334 -0.05222218 0.023605397 -0.023691732 0.04492647 -0.08391075 0.029535642 0.02489729
0.031030735 -0.0065482506 -0.026117293 -0.06604992 0.003761809 0.0034608268 -0.051238265 0.058675237
0.051196706 -0.019494895 0.007154466 -0.07060802 0.05329976 -0.010054169 -0.07047318 -0.052372362
-0.0502613 -0.021124117 0.044136025 -0.074706435 -0.053082008 -0.028350677 0.002618714 -0.008540865
-0.083271466 0.015057512 0.03376126 -0.073783204 0.016307637 -0.08200679 -0.054761026 -0.05031542
-0.04838836 0.03514415 0.04198109 -0.017714836 0.05685014 0.023274025 -0.004485819 -0.013739259
0.039586164 -0.010885742 -0.05520007 -0.03539378 0.027403321 0.015434589 0.082842335 -0.02810959
0.05581303 0.06479022 0.04299552 0.06166192 0.05122767 -0.06050642 -0.05496425 -0.024942107
0.017681679 0.032087397 -0.0602304 0.03986454 0.007967208 0.05422629 -0.028287383 -0.040937435
0.052033078 0.022747623 -0.023976486 -0.08342528 -0.07932985 0.065119065 0.050052322 0.013865728
-0.03676651 0.01871227 -0.07283747 0.040721044 0.013240191 -0.056269024 0.039380506 -0.08594971
0.019063633 -0.06501442 -0.05058417 -0.00096233 -0.008057435 -0.041218895 -0.06975179 -0.05631368
-0.023152238 -0.019142827 -0.009513557 -0.06499788 -0.012827064 0.004346199 0.045833178 -0.04796838
-0.054353982 -0.037087135 0.03939429 0.05145783 0.0038938425 -0.005278488 -0.07659393 0.054791354
-0.053091865 -0.035164572 -0.04703216 -0.07016809 0.029154532 0.027836883 0.04026356 -0.07042526
0.03275904 -0.022711338 -0.07589417 -0.07507545 -0.04249289 -0.044502564 0.049089584 0.01031235
-0.05882945 -0.030772509 -0.054997176 0.027032465 -0.07521342 -0.0116548715 0.022839192 0.036955286
0.048311137 0.06233106 -0.022429416 -0.053227667 0.037664127 0.018602837 -0.0658722 0.0073226057
0.038099423 -0.06127466 0.0474867 0.0022622629 0.005806299 -0.078080125 0.018890975 0.02823347
-0.0071662497 0.038541313 0.011122998 -0.069002055 -0.02729183 0.0076533565 -0.06533632 -0.054513816
-0.06797039 0.02280253 0.010261314 -0.04769837 0.048981033 0.04202026 -0.07470024 -0.026778093
-0.07117346 -0.06528687 -0.07842992 -0.042817436 -0.04613456 -0.08384513 0.034929406 0.037691623
0.02405593 -0.0070097996 -0.075217694 0.040220946 0.006503764 -0.04713908 0.0025358896 -0.044643823
-0.016668374 0.036516197 0.020125436 -0.04114801 -0.08092421 -0.07339382 -0.06040483 -0.04225587
-0.093795806 -0.08858493 -0.043512393 -0.040503815 -0.09700252 -0.024948772 -0.060892664 -0.09816507
0.0027409175 -0.027389798 -0.044632677 -0.043737166 -0.103207946 -0.0352032 -0.08766934 0.02148038
0.034843136 0.014520763 -0.104455136 -0.069907285 -0.10812024 -0.078505374 -0.06989514 -0.00883823
-0.031297356 -0.09028592 0.03253621 -0.10182354 -0.08130658 -0.06487302 -0.08573037 -0.052664626
-0.08200669 -0.06944199 -0.088818535 -0.07768378 0.028820794 0.031431824 -0.07470373 0.027751593
-0.03436322 0.0019916475 0.013079149 -0.06505432 -0.09721952 -0.030526733 -0.041648302 -0.041531075
-0.0007879691 0.033518296 -0.035734948 0.019017702 -0.07414145 -0.019939857 0.025061497 0.0011514506
00000000: b297 eabc 0fdb 633d 8e24 a33c adf0 10bd
00000010: ca51 5dbd 7f9e 96bc 78dd 68bd 23b6 3a3d
00000020: 4dd1 a4bc ede6 55bd 1b60 c13c 2a15 c2bc
00000030: d104 383d 66d9 abbd bbf4 f13c 67f5 cb3c
00000040: 2b34 fe3c b592 d6bb eff3 d5bc 2e45 87bd
00000050: af88 763b 0acf 623b 37df 51bd 7255 703d
00000060: a3b3 513d c2b3 9fbc 0370 ea3b f09a 90bd
00000070: d950 5a3d 3eba 24bc 3e54 90bd 6784 56bd
00000080: cbde 4dbd 7c0c adbc fac7 343d b0ff 98bd
00000090: 856c 59bd ae3f e8bc bb9e 2b3b fcee 0bbc
000000a0: 3b8a aabd c8b3 763c 3f49 0a3d a61b 97bd
000000b0: 9897 853c 2df3 a7bd 194d 60bd 8b17 4ebd
000000c0: df32 46bd 50f3 0f3d 5df4 2b3d b41e 91bc
000000d0: b1db 683d 2ba9 be3c c7fd 92bb a11a 61bc
000000e0: 1a25 223d 1c5a 32bc 7819 62bd 11f9 10bd
000000f0: ee7c e03c 5ce1 7c3c 3ea9 a93d 1546 e6bc
00000100: 349c 643d bcb0 843d 121c 303d 3691 7c3d
00000110: 1bd4 513d 94d5 77bd 3222 61bd 6453 ccbc
00000120: 2bd9 903c 136e 033d 27b4 76bd 0049 233d
00000130: e488 023c 631c 5e3d f1ba e7bc 03ae 27bd
00000140: a320 553d 3959 ba3c 566a c4bc e0da aabd
00000150: b077 a2bd 255d 853d aa03 4d3d 142d 633c
00000160: 7b98 16bd 794a 993c d02b 95bd 1ccb 263d
00000170: 63ed 583c 597a 66bd 744d 213d 6706 b0bd
00000180: 562b 9c3c 4826 85bd 5931 4fbd e044 7cba
00000190: 5503 04bc 25d5 28bd 07da 8ebd 2ca9 66bd
000001a0: c3a9 bdbc 6bd1 9cbc c0de 1bbc 9c1d 85bd
000001b0: 9b28 52bc 8f6a 8e3b 92bb 3b3d 7e7a 44bd
000001c0: 48a2 5ebd aee8 17bd e85b 213d 72c5 523d
000001d0: d62f 7f3b 2bf7 acbb 47dd 9cbd e66c 603d
000001e0: db76 59bd ba08 10bd cba4 40bd 4ab4 8fbd
000001f0: 7cd5 ee3c 2d0a e43c 67eb 243d 1e3b 90bd
00000200: 582e 063d 210d babc 676e 9bbd 28c1 99bd
00000210: 060d 2ebd 5248 36bd 2912 493d 21f5 283c
00000220: 26f7 70bd a116 fcbc b844 61bd 3073 dd3c
00000230: 7e09 9abd 13f4 3ebc 4219 bb3c 6d5e 173d
00000240: e6e1 453d db4e 7f3d e5bd b7bc 4105 5abd
00000250: b345 1a3d fa64 983c 01e8 86bd 78f2 ef3b
00000260: 240e 1c3d 23fb 7abd 6a81 423d 7942 143b
00000270: c442 be3b 79e8 9fbd 3fc1 9a3c e149 e73c
00000280: dcd2 eabb 7fdd 1d3d 3c3d 363c f350 8dbd
00000290: 1e93 dfbc 02c9 fa3b 0ccf 85bd e149 5fbd
000002a0: 0f34 8bbd 5fcc ba3c 121f 283c 5e5f 43bd
000002b0: 56a0 483d 701d 2c3d 70fc 98bd bb5d dbbc
000002c0: 64c3 91bd 1fb5 85bd de9f a0bd 5661 2fbd
000002d0: 98f7 3cbd ffb6 abbd 2312 0f3d 8862 1a3d
000002e0: f110 c53c 76b2 e5bb bc0b 9abd b8be 243d
000002f0: 871d d53b e814 41bd 2b31 263b 71dc 36bd
00000300: 1d8c 88bc 0292 153d 19de a43c d18a 28bd
00000310: 98bb a5bd 804f 96bd 0e6b 77bd 7e14 2dbd
00000320: 0418 c0bd 046c b5bd 0d3a 32bd 54e7 25bd
00000330: 42a9 c6bd 5e61 ccbc 966a 79bd c50a c9bd
00000340: f7a0 333b 9260 e0bc c1d0 36bd be25 33bd
00000350: b05e d3bd 3b31 10bd fc8b b3bd 9ff7 af3c
00000360: adb7 0e3d 7fe8 6d3c 93ec d5bd 8d2b 8fbd
00000370: 256e ddbd 6dc7 a0bd 2f25 8fbd 39ce 10bc
00000380: a831 00bd d3e7 b8bd b044 053d dc88 d0bd
00000390: 1084 a6bd 25dc 84bd 6793 afbd ddb6 57bd
000003a0: 20f3 a7bd 9a37 8ebd 7ee6 b5bd ac18 9fbd
000003b0: 9619 ec3c a8be 003d 45fe 98bd 4f57 e33c
000003c0: 73c0 0cbd 4d86 023b ed49 563c 333b 85bd
000003d0: 071b c7bd 3313 fabc 6997 2abd 7d1c 2abd
000003e0: b68f 4eba 7b4a 093d cf5e 12bd 03cb 9b3c
000003f0: 79d7 97bd e958 a3bc c54d cd3c 45ec 963a

fc1.bias f4 [120]
-0.03232354 -0.08813018 -0.03427267 -0.14721002 -0.023611005 0.041700628 -0.008852592 0.42655867
0.2302116 -0.051713534 -0.23602797 0.1930854 -0.20679687 -0.051379878 0.23307833 -0.0026980464
0.19671614 -0.06675106 0.0367676 -0.065719105 0.49611542 0.35750595 -0.007481771 -0.28669733
-0.15752219 -0.20252766 0.01156164 -0.012772703 -0.023923395 -0.057945628 0.08291278 -0.11197697
0.045217227 -0.15366997 -0.18921538 -0.032919537 0.12024181 0.21339475 -0.08009534 0.23450467
0.03971501 -0.19606557 0.32388392 0.067921504 -0.1820764 -0.012921893 0.06057283 -0.040062338
-0.052029304 0.29393744 -0.012772244 -0.00081698986 -0.068320386 0.24336654 -0.09126527 0.46491832
-0.023098862 0.33791354 -0.014930353 0.029805437 0.47726032 0.39608407 0.53013015 -0.048990086
0.20641778 0.07265419 0.05296709 0.2156414 0.22118814 0.3974681 -0.5560428 0.052436635
0.31987184 0.10213256 -0.03981605 0.33141875 0.03774256 0.0651959 -0.01881787 -0.032645695
-0.26873252 -0.10623804 0.04765802 0.17414844 0.16718572 -0.0785083 -0.030552512 0.44712767
-0.0123385405 -0.005175675 -0.4415161 0.5159605 0.22330344 0.019852722 -0.081906326 -0.057511147
-0.19146746 -0.19105966 -0.035301197 -0.03095861 -0.13735647 -0.072686195 0.22329596 -0.09236903
-0.16463526 -0.22978829 -0.07706174 -0.106572144 -0.09331913 -0.08069106 -0.04198588 0.20165625
0.12189312 0.11753217 -0.06342353 0.11007862 -0.002365358 -0.045366127 -0.09892398 0.09114067
00000000: b065 04bd 997d b4bd 8061 0cbd 39be 16be
00000010: de6b c1bc 47ce 2a3d 760a 11bc e665 da3e
00000020: 97bc 6b3e 92d1 53bd 51b1 71be 2eb8 453e
00000030: 8fc2 53be b573 52bd 16ac 6e3e b5d1 30bb
00000040: f56f 493e c8b4 88bd 9f99 163d bd97 86bd
00000050: d702 fe3e 050b b73e a529 f5bb fec9 92be
00000060: 7f4d 21be 6963 4fbe 086d 3d3c 9944 51bc
00000070: fffa c3bc 6558 6dbd 2dce a93d 2f54 e5bd
00000080: b335 393d a95b 1dbe adc1 41be a3d6 06bd
00000090: 5741 f63d 2784 5a3e 0709 a4bd fe21 703e
000000a0: 35ac 223d 6ac5 48be 1dd4 a53e 6e1a 8b3d
000000b0: 3c72 3abe 59b6 53bc 371b 783d 6818 24bd
000000c0: ae1c 55bd f87e 963e ad42 51bc 432b 56ba
000000d0: 8feb 8bbd 1435 793e 49e9 babd c609 ee3e
000000e0: d339 bdbc 0103 ad3e 709e 74bc 882a f43c
000000f0: 775b f43e 88cb ca3e 9cb6 073f d4a9 48bd
00000100: 2f5f 533e b8cb 943d 05f4 583d 19d1 5c3e
00000110: 257f 623e f080 cb3e d258 0ebf ccc7 563d
00000120: 3ec6 a33e e02a d13d 2816 23bd b8af a93e
00000130: f197 1a3d 6e85 853d ef27 9abc 7eb7 05bd
00000140: 4f97 89be 5493 d9bd 0e35 433d f853 323e
00000150: bc32 2b3e f6c8 a0bd 4349 fabc ebed e43e
00000160: 9727 4abc b598 a9bb 660e e2be fd15 043f
00000170: a8a9 643e 2da2 a23c 81be a7bd cf90 6bbd
00000180: 0c10 44be 25a5 43be fd97 10bd e99c fdbc
00000190: 2da7 0cbe 80dc 94bd b2a7 643e f92b bdbd
000001a0: 2596 28be 9f4d 6bbe 8cd2 9dbd 7f42 dabd
000001b0: 1a1e bfbd 5b41 a5bd 63f9 2bbd fa7e 4e3e
000001c0: 1aa3 f93d b5b4 f03d 32e4 81bd e670 e13d
000001d0: 1f04 1bbb d5d1 39bd a898 cabd f6a7 ba3d

fc2.weight f4 [60, 120]
-0.01144606 0.057701234 0.11571352 0.20902318 -0.026007583 0.14812385 0.21973567 -0.51685005
-0.063626714 0.37036133 0.004957412 0.04630956 -0.16473745 -0.16923235 0.0034115857 0.017474115
-0.15742609 0.09936207 0.26048842 0.022669153 0.20895152 -0.29788437 0.060897835 0.15846659
0.15727872 -0.3683224 -0.025241774 0.06612978 -0.05905084 -0.06398938 0.04741416 -0.07544414
0.03322057 -0.014187678 -0.022015247 0.069388404 -0.094966516 0.051933315 -0.070270166 -0.3639024
-0.028293427 0.16808344 -0.07979006 0.028403953 0.19296555 0.23129578 -0.35002178 -0.058552552
-0.015845738 -0.09333419 -0.050836764 0.049601734 -0.07511526 0.35814753 0.003442515 -0.26770073
0.32844785 0.4635501 -0.008165362 0.15150353 -0.223904 -0.28114134 0.04545519 -0.00706415
-0.022891209 0.10391286 0.09480481 -0.19255209 -0.19017647 -0.34511584 0.0040503354 0.062572666
-0.08520492 0.28112224 0.012192151 -0.07571405 0.31676483 -0.15654829 -0.018077472 -0.10168501
0.03229777 -0.17198141 0.048237428 -0.43519074 -0.16612518 0.09767112 -0.058910206 0.062712304
0.11200826 -0.010342424 0.02975192 -0.19378412 0.1383761 0.4609497 0.05842492 0.006235076
0.43313026 0.05119182 0.10104175 0.36282134 -0.20024124 -0.060433652 0.32477364 -0.044138566
0.029527757 0.14513452 -0.15508583 0.04511012 0.009743818 -0.056635093 0.020265598 0.1918476
-0.076986074 0.023666581 -0.036341507 0.3904874 0.004557249 0.0007688544 0.41492665 0.0044930633
0.005022814 0.046807367 -0.06937657 0.06811363 0.026885811 0.34612396 0.09689373 -0.05817023
0.36642963 -0.20669946 0.22262755 -0.19322711 0.12594315 -0.030375464 -0.086981066 -0.0673897
-0.008007861 0.07907949 -0.64672506 -0.029679313 -0.37694597 0.07548186 0.06694652 0.17265558
-0.4560702 0.08813757 0.40591958 -0.12181829 -0.05432557 0.04096723 0.5078734 0.28553686
-0.35418934 -0.17519736 -0.25806525 0.08069149 -0.22444253 -0.04970462 0.057247456 -0.039578244
0.21136448 0.10922424 0.08528012 0.061873853 0.0307819 0.31176758 -0.13357912 -0.05729669
0.04854735 0.019467521 0.032782916 -0.02236932 0.08545715 0.03840885 0.057292316 0.112733066
0.21326669 0.40635592 -0.0385818 0.24147044 -0.39627013 0.019489974 0.10137634 -0.11519672
-0.2452482 0.12309425 -0.06919578 -0.32033464 -0.2550977 0.14728704 0.08498424 -0.09505977
-0.082119524 0.08502302 -0.023987712 -0.1847911 -0.1835055 -0.08131484 -0.058830887 0.030457873
-0.07324547 0.093618706 -0.031084383 0.020217497 -0.06333413 0.04288911 0.049956053 0.26746178
0.049280316 0.09627248 0.12792523 -0.10352518 0.005093958 0.38813746 0.08887383 -0.040831026
-0.1707977 -0.38698027 -0.029050404 -0.4948673 0.17605102 0.045519203 0.06533715 -0.00646958
0.3145868 0.300776 -0.05078219 0.031964604 -0.0900906 0.0136614395 -0.027960226 -0.010529802
0.09602328 -0.04151503 -0.03908676 0.4295981 -0.052882418 -0.0125092715 -0.6801578 -0.19227926
0.08967292 -0.049723975 0.0022882654 0.25773776 -0.07416018 -0.053450577 0.032432415 -0.108693585
-0.16996881 -0.32592583 -0.3046322 0.273851 -0.07988637 0.13981603 0.03415721 0.041573618
00000000: 4188 3bbc 2158 6c3d 36fb ec3d 2c0a 563e
00000010: db0d d5bc c7ad 173e 6302 613e 4950 04bf
00000020: b94e 82bd 00a0 bd3e c971 a23b 18af 3d3d
00000030: efb0 28be 3f4b 2dbe e994 5f3b e025 8f3c
00000040: 4e34 21be 577e cb3d bd5e 853e a9b4 b93c
00000050: 63f7 553e 4d84 98be 0270 793d 1145 223e
00000060: ac0d 213e c194 bcbe d6c7 cebc 0d6f 873d
00000070: 4bdf 71bd dd0c 83bd 5a35 423d 7582 9abd
00000080: 4b12 083d 6f73 68bc 5259 b4bc 821b 8e3d
00000090: ce7d c2bd 07b8 543d cee9 8fbd 6a51 babe
000000a0: 9ec7 e7bc 111e 2c3e f968 a3bd 68af e83c
000000b0: c398 453e cdd8 6c3e 0e36 b3be cdd4 6fbd
000000c0: ecce 81bc ff25 bfbd 363a 50bd 302b 4b3d
000000d0: 08d6 99bd 1d5f b73e d19b 613b 1210 89be
000000e0: 512a a83e 7056 ed3e 03c8 05bc be23 1b3e
000000f0: 1747 65be c2f1 8fbe 392f 3a3d 637a e7bb
00000100: 5886 bbbc 44d0 d43d 0629 c23d 602c 45be
00000110: 9fbd 42be 06b3 b0be adb8 843b 1926 803d
00000120: eb7f aebd 41ef 8f3e 96c1 473c f80f 9bbd
00000130: 002f a23e 324e 20be 3517 94bc 3b40 d0bd
00000140: ab4a 043d e51b 30be 9c94 453d 52d1 debe
00000150: b81c 2abe cc07 c83d d44b 71bd 4f6f 803d
00000160: 9664 e53d 4573 29bc 4cba f33c 586f 46be
00000170: 77b2 0d3e 9901 ec3e f84e 6f3d 9c4f cc3b
00000180: 40c3 dd3e 84ae 513d faee ce3d b8c3 b93e
00000190: 0a0c 4dbe 4789 77bd bb48 a63e a4ca 34bd
000001a0: 32e4 f13c 259e 143e d2ce 1ebe 64c5 383d
000001b0: 89a4 1f3c 33fa 67bd 0a04 a63c b273 443e
000001c0: e0aa 9dbd 6be0 c13c d5da 14bd f7ed c73e
000001d0: fa54 953b f28c 493a 4471 d43e 8c3a 933b
000001e0: 6b96 a43b 15b9 3f3d 4e15 8ebd 297f 8b3d
000001f0: a23f dc3c 2937 b13e 3870 c63d e843 6ebd
00000200: aa9c bb3e 06a9 53be 7af8 633e 54dd 45be
00000210: 3ef7 003e f7d5 f8bc 2123 b2bd 9c03 8abd
00000220: 6733 03bc 6df4 a13d c68f 25bf 0822 f3bc
00000230: 10ff c0be 3c96 9a3d 421b 893d a0cc 303e
00000240: 0982 e9be 7881 b43d b1d4 cf3e de7b f9bd
00000250: 7d84 5ebd 41cd 273d fe03 023f e331 923e
00000260: 4e58 b5be f066 33be 2121 84be 9441 a53d
00000270: 43d4 65be 1297 4bbd 4f7c 6a3d cc1c 22bd
00000280: ee6f 583e f5b0 df3d 58a7 ae3d 706f 7d3d
00000290: 532a fc3c 00a0 9f3e f7c8 08be efaf 6abd
000002a0: 96d9 463d 5a7a 9f3c 6147 063d dd3f b7bc
000002b0: 2904 af3d 9952 1d3d 59ab 6a3d 98e0 e63d
000002c0: 9562 5a3e e20d d03e f307 1ebd 0744 773e
000002d0: ebe3 cabe 70a9 9f3c 669e cf3d 42ec ebbd
000002e0: 5822 7bbe d718 fc3d 84b6 8dbd e702 a4be
000002f0: 2a9c 82be 6ad2 163e 380c ae3d b2ae c2bd
00000300: 482e a8bd 8d20 ae3d e181 c4bc e139 3dbe
00000310: dee8 3bbe 6588 a6bd a8f8 70bd ca82 f93c
00000320: b901 96bd 2abb bf3d ada4 febc 2a9f a53c
00000330: 53b5 81bd 7eac 2f3d b89e 4c3d c0f0 883e
00000340: 28da 493d 822a c53d d5fe 023e 0205 d4bd
00000350: 38eb a63b f4b9 c63e 7c03 b63d 6f3e 27bd
00000360: 98e5 2ebe 4722 c6be 1dfb edbc 3f5f fdbe
00000370: b846 343e 5872 3a3d 7ccf 853d c5fe d3bb
00000380: 8511 a13e 50ff 993e fc00 50bd 51ed 023d
00000390: 6c81 b8bd 3bd4 5f3c d80c e5bc 3185 2cbc
000003a0: daa7 c43d aa0b 2abd 7019 20bd 48f4 db3e
000003b0: 3c9b 58bd b0f3 4cbc d21e 2ebf dbe4 44be
000003c0: 70a6 b73d 5eab 4bbd b9f6 153b 34f6 833e
000003d0: 4be1 97bd feee 5abd dad7 043d be9a debd
000003e0: 4e0c 2ebe c0df a6be c0f8 9bbe 3336 8c3e
000003f0: 779b a3bd ef2b 0f3e 6ee8 0b3d 1949 2a3d

fc2.bias f4 [60]
-0.2440584 0.10759449 0.22162467 0.21255435 0.026967281 0.46963674 -0.13436782 0.42429796
0.21484287 0.074085385 0.020390661 -0.07829203 7.121841e-05 -0.12050388 0.010706853 0.19982126
0.06968083 0.26906028 0.018639388 -0.18943414 0.29720736 0.080928065 -0.017226947 0.22302277
0.31713519 -0.08387494 0.017821826 0.22390397 0.41816503 -0.075997874 -0.18493085 0.025279282
-0.09768108 -0.21426041 -0.096344426 0.11200425 0.090350084 -0.06740141 0.107786775 -0.16909225
0.06509385 -0.42997715 -0.054675024 -0.060914163 -0.0871344 0.4982878 0.18819551 0.13240916
-0.2029116 0.00797009 -0.073349625 -0.07949624 0.35070354 0.22323714 0.2415393 -0.070108786
0.028752806 -0.0421025 -0.1593087 -0.5066192
00000000: 72ea 79be 805a dc3d 94f1 623e d9a7 593e
00000010: 7dea dc3c 3a74 f03e b897 09be 953d d93e
00000020: c5ff 5b3e 14ba 973d 510a a73c 9257 a0bd
00000030: 185b 9538 bdca f6bd cc6b 2f3c f29d 4c3e
00000040: d3b4 8e3d 45c2 893e a1b1 983c 06fb 41be
00000050: 902b 983e 9dbd a53d 871f 8dbc 1560 643e
00000060: 8b5f a23e a0c6 abbd 14ff 913c 1547 653e
00000070: ba19 d63e c6a4 9bbd 835e 3dbe 7f16 cf3c
00000080: 050d c8bd 1567 5bbe 3a50 c5bd 7c62 e53d
00000090: 7709 b93d c009 8abd 50bf dc3d 8526 2dbe
000000a0: ed4f 853d f725 dcbe ebf2 5fbd 2181 79bd
000000b0: 8573 b2bd 941f ff3e 53b6 403e 4496 073e
000000c0: 0fc8 4fbe fb94 023c 5438 96bd edce a2bd
000000d0: 6a8f b33e 4798 643e 1456 773e 3295 8fbd
000000e0: 018b eb3c ac73 2cbd d221 23be ccb1 01bf

out.weight f4 [10, 60]
0.5913189 -0.48132616 0.0070693577 0.16580415 -0.5483449 -0.0045323246 -0.088629715 0.16803893
0.08030221 -0.10094573 0.36264837 -0.12552817 -0.0783947 -0.02858383 0.0517183 -0.3213327
-0.3844727 0.35006893 -0.035031192 -0.23035453 -0.6051704 -0.8178558 0.11736469 0.4956318
-0.5700682 0.18818803 -0.09030651 -0.021309411 0.025721863 0.08463022 -0.31976157 0.13104321
0.091126844 0.4685536 -0.004603825 0.1411755 -0.31083116 0.0022131307 -0.03980289 -0.7829998
0.24546804 0.6576202 0.074747734 0.06192869 0.0374884 -0.02716934 0.16575824 -0.32011142
-0.038065884 0.049341075 -0.028604237 -0.405772 0.17622246 -0.27448615 0.005284805 0.06696524
-0.3616444 -0.068116345 0.114222996 -0.28474388 0.2674173 -0.07070552 0.2230859 0.252099
-1.1950043 0.010430588 -0.11267776 -0.06940298 0.57145685 0.009081715 -0.27920875 -0.06496665
-1.2689952 -0.04904949 0.18744381 -0.9363399 0.0308091 -0.27329493 -0.12962936 0.032983266
-0.21224666 -0.017068043 0.30830836 -1.1058196 0.14559531 -0.94248825 0.055601027 -0.3970903
0.05626951 -0.16488628 0.22837439 -0.64943945 0.20671989 0.32053494 0.09864562 -0.41225922
-0.24757051 -0.021653676 0.17775537 0.24606766 -0.6989605 -0.19301113 -0.8031868 0.04952424
-0.101707295 -0.5644541 -0.07151095 0.56780773 0.349558 0.09754143 -0.070308365 -0.0011629646
0.11529638 -0.15597606 0.123104535 -0.4651657 0.35823095 -1.3499432 -0.072359025 -0.44623932
-0.35044637 0.3568116 -0.24485926 -0.872656 0.029868895 -0.09697756 -0.12822732 0.14232479
0.26965326 -0.016577419 0.3463157 -0.011191795 0.16441567 -0.056161407 -0.0028970912 0.100451075
-0.3930774 -1.0912235 -0.17841487 -0.03291986 -0.19049735 -0.014352599 -0.06324416 -0.4869208
-0.08897036 -0.40976736 0.20562045 -0.5467959 0.076589316 0.035895832 0.13387029 0.106820896
-0.5601008 0.0015870513 -0.000678185 0.09248906 0.1751471 0.11939528 -0.16718175 0.09436736
0.4582778 -0.25207695 0.085151985 0.012582108 -0.06829158 0.023045436 -0.02846778 -0.12292808
-0.17673141 0.36645314 -0.0030263087 -0.6663145 0.13781054 -0.34283662 0.18209934 0.02333547
-0.28349194 -0.031556528 0.16642405 -0.65186197 -0.5654805 -0.94304293 0.12436797 -0.04066052
0.87686086 0.18200777 0.10614022 0.11905511 -0.5514802 0.103593834 -0.3453649 -0.045840178
0.1100378 -0.06650527 0.38902932 0.03800103 0.0143052535 -0.15923676 -0.1299201 -0.5324897
0.36591837 -0.23073466 -0.12973501 -0.45660675 0.083589554 -0.04587697 0.096810706 -0.87533754
0.14408696 0.065318495 -0.17601377 -0.14353624 0.13008218 -0.09662659 -0.09130274 -0.023027545
-0.0062340056 -0.1338885 0.057573456 -0.00033392757 0.014435886 -0.5535614 -0.6466562 -0.060822748
0.039257247 -0.01120184 0.06399234 -0.14576153 -0.23559427 -0.14749116 -0.08544159 0.18524964
0.044054832 0.012779653 0.052755058 0.0015839126 -0.33755377 0.17232148 0.043299917 0.43907058
0.17924161 0.23162287 0.21703176 -0.6674014 -0.6171819 -0.21869192 0.038976416 -0.0072186496
-0.20199102 -0.13629626 -0.6429796 -0.07833221 0.1708602 -0.04044593 -0.42151043 0.00014944896
00000000: ad60 173f 6270 f6be 12a6 e73b 90c8 293e
00000010: 5560 0cbf e583 94bb 7f83 b5bd 6612 2c3e
00000020: 7c75 a43d a3bc cebd 0cad b93e 758a 00be
00000030: 678d a0bd a328 eabc 91d6 533d b885 a4be
00000040: 9bd9 c4be 3c3c b33e de7c 0fbd 0fe2 6bbe
00000050: 73ec 1abf ff5e 51bf e65c f03d 74c3 fd3e
00000060: fdef 11bf 5db4 403e 9ff2 b8bd 1391 aebc
00000070: a8b6 d23c 9c52 ad3d cab7 a3be 3130 063e
00000080: b6a0 ba3d 42e6 ef3e afdb 96bb 4f90 103e
00000090: 4325 9fbe 2c0a 113b 5b08 23bd ad72 48bf
000000a0: f95b 7b3e cc59 283f 5715 993d f0a8 7d3d
000000b0: 708d 193d 3c92 debc 87bc 293e a5e5 a3be
000000c0: f9ea 1bbd de19 4a3d 6f53 eabc 59c1 cfbe
000000d0: a973 343e 7389 8cbe 282c ad3b 1225 893d
000000e0: 7429 b9be 9580 8bbd bfed e93d f3c9 91be
000000f0: ecea 883e 0ece 90bd a170 643e 1f13 813e
00000100: e7f5 98bf 0fe5 2a3c 99c3 e6bd 2623 8ebd
00000110: ff4a 123f 79cb 143c 73f4 8ebe 3c0d 85bd
00000120: 6f6e a2bf 1ee8 48bd 45f1 3f3e f9b3 6fbf
00000130: 5e63 fc3c 50ed 8bbe 8fbd 04be 7619 073d
00000140: 3057 59be 48d2 8bbc 98da 9d3e 7f8b 8dbf
00000150: f016 153e e946 71bf e7bd 633d 6b4f cbbe
00000160: dc7a 663d f3d7 28be fada 693e aa41 26bf
00000170: 61ae 533e 281d a43e b706 ca3d a413 d3be
00000180: 2083 7dbe 0d63 b1bc 8105 363e 29f9 7b3e
00000190: 13ef 32bf b6a4 45be a69d 4dbf eed9 4a3d
000001a0: ea4b d0bd 1080 10bf 5574 92bd d95b 113f
000001b0: 44f9 b23e cdc3 c73d d5fd 8fbd 9e6e 98ba
000001c0: 8220 ec3d 30b8 1fbe 3b1e fc3d 332a eebe
000001d0: 0c6a b73e f0ca acbf f830 94bd 7b79 e4be
000001e0: b56d b3be 03b0 b63e 63bc 7abe 6266 5fbf
000001f0: 9daf f43c 2c9c c6bd 064e 03be 97bd 113e
00000200: fe0f 8a3e 5ecd 87bc 4b50 b13e ca5d 37bc
00000210: 955c 283e 8109 66bd 20dd 3dbb 4bb9 cd3d
00000220: 7141 c9be 36ad 8bbf 63b2 36be fad6 06bd
00000230: bd11 43be 2a27 6bbc 2786 81bd af4d f9be
00000240: 1836 b6bd 07cd d1be 2b8e 523e d1fa 0bbf
00000250: dcda 9c3d 8207 133d 4b15 093e eac4 da3d
00000260: c462 0fbf 9b04 d03a 3ac8 31ba e76a bd3d
00000270: c359 333e 8385 f43d b131 2bbe ad43 c13d
00000280: 63a3 ea3e 3b10 81be 2a64 ae3d 3025 4e3c
00000290: 75dc 8bbd c8c9 bc3c 4335 e9bc b8c1 fbbd
000002a0: 14f9 34be bf9f bb3e 0955 46bb 9693 2abf
000002b0: 351e 0d3e 4888 afbe 4078 3a3e 072a bf3c
000002c0: db25 91be 6b41 01bd 116b 2a3e 6de0 26bf
000002d0: 54c3 10bf 436b 71bf a2b4 fe3d a58b 26bd
000002e0: f479 603f 3f60 3a3e 0b60 d93d 2ad3 f33d
000002f0: ce2d 0dbf 0129 d43d abd3 b0be e9c2 3bbd
00000300: 805b e13d ea33 88bd da2e c73e f8a6 1b3d
00000310: 9560 6a3c f60e 23be c609 05be 3f51 08bf
00000320: a759 bb3e b545 6cbe 41d9 04be 5cc8 e9be
00000330: 0031 ab3d 7de9 3bbd b144 c63d 1f16 60bf
00000340: 888b 133e b4c5 853d f43c 34be 2afb 12be
00000350: 4334 053e 29e4 c5bd eefc babd 43a4 bcbc
00000360: a146 ccbb 111a 09be 25d2 6b3d 0013 afb9
00000370: 7f84 6c3c 33b6 0dbf 438b 25bf 4621 79bd
00000380: 35cc 203d ec87 37bc 6a0e 833d 8342 15be
00000390: a03f 71be ec07 17be 00fc aebd 15b2 3d3e
000003a0: d772 343d c061 513c b015 583d 4a9b cf3a
000003b0: d9d3 acbe 0b75 303e 415b 313d dccd e03e
000003c0: 1d8b 373e 8c2e 6d3e 933d 5e3e d1da 2abf
000003d0: a2ff 1dbf c6f0 5fbe bca5 1f3d 6c8a ecbb
000003e0: bcd6 4ebe 3f91 0bbe 509a 24bf a36c a0bd
000003f0: faf5 2e3e a2aa 25bd 37d0 d7be 66b5 1c39

out.bias f4 [10]
-0.023341816 0.08833144 0.09511224 0.07590381 -0.2642711 -0.22554755 0.06079587 0.29231092
0.16050155 -0.168114
00000000: 5637 bfbc 1de7 b43d 35ca c23d 7573 9b3d
00000010: 8b4e 87be f0f5 66be 1705 793d c7a9 953e
00000020: 855a 243e 1426 2cbe
